强化学习TD3_py/run/actor.pt (torch, 21767 bytes, 6 tensors)

weight f4 [64, 7]
-0.009887833 -0.024416827 -0.17659982 -0.12697135 -0.0742915 0.031550523 0.007015958 -0.05628249
-0.029928029 0.05064721 -0.014141296 -0.103917815 -0.053872522 -0.13507773 0.01769648 -0.14575896
-0.05062467 -0.06194154 -0.042851467 0.16736256 -0.25644615 -1.9456608 0.4184477 -0.22601148
-0.114914805 -0.28131276 -0.055527616 -0.13284281 0.072085276 -0.03199177 -0.16859369 0.08407165
-0.10246823 -0.089898795 0.1503843 0.21317084 0.005557596 -0.12666304 0.13085845 -0.07768239
-0.15028895 0.057352986 -1.3435167 0.48797998 -0.057230543 -0.071020246 -0.13546555 -0.19075781
-0.26334992 -0.011324175 0.036188137 0.036725517 -0.13851963 0.069908604 -0.06392265 -0.25672582
0.018446509 -0.021655556 -0.18777877 0.00612837 -0.09564892 0.08093151 0.026241926 -0.8760714
1.2032483 0.039168056 0.08891699 -0.12301916 -0.19506074 -0.13441588 1.8174574 -0.34498867
0.16055912 0.19422787 0.21011472 0.20622095 0.20228657 2.52932 0.4139937 -0.049981028
0.058449417 0.023157515 -0.14267614 -0.082480066 -0.18692611 0.34783328 -0.089466095 -0.027473321
0.077331915 -0.16538052 0.023569906 0.09797947 0.14356571 0.05304743 -0.006681915 0.044958837
-0.121275224 -0.07282509 0.04334077 -0.010217186 -0.19464473 -0.06459419 -0.14965126 -0.11202254
0.05657168 1.8063241 -0.5166254 0.17360331 0.052042834 0.34610635 0.09468469 0.27590406
1.7653124 -0.5763465 0.16873036 0.12583478 0.33334 0.121256016 0.19408213 -0.75243694
0.28700218 -0.098685615 0.031576816 -0.12939535 0.08047267 -0.26944485 -0.8998195 2.397055
0.1919143 -0.022881802 0.31419843 0.046129994 0.15653108 -0.89282215 0.20197494 -0.1496767
-0.15874647 0.013717642 -0.35897845 0.11629634 -1.1273696 0.19704054 -0.04563224 -0.06002236
-0.14525 -0.22575697 -0.15552607 -0.058196064 0.12676448 -0.14384414 -0.070899814 -0.1031272
0.11214801 0.010772829 0.20313877 0.14967099 0.010913455 -0.035385862 -0.029749863 -0.04711043
-0.16981712 0.11245903 -0.14858232 -0.20139173 0.10569715 -0.13641055 0.039735835 -0.08096117
-0.20915647 0.1124335 -0.09719268 0.053727873 0.003292095 -0.07775479 -0.05919696 -0.8037716
0.65152496 -0.013604619 -0.17911592 -0.13976313 -0.05558328 0.03926409 -0.7669615 0.5764641
0.009472647 -0.037758026 -0.12382077 -0.047331084 -0.12980497 -0.08109899 -0.009075497 -0.037080005
0.11949157 -0.1749989 -0.13685775 -0.024602158 0.09781814 0.05648668 -0.1113603 0.13241154
-0.032351654 -0.08528142 -0.010534537 -1.3954966 -0.10891636 -0.21900268 -0.23619892 -0.22826158
-0.07067675 -0.29078785 0.01204423 -0.031754833 -0.060998864 -0.040507525 0.022315633 -0.07589565
-0.048498493 -0.087473854 -0.0035647647 -0.017511453 0.06775838 -0.025067283 -0.089691885 -0.08249702
-0.051923145 -0.029549424 -0.08877258 -0.14996563 0.05200756 -0.05170678 0.04623172 0.023133796
0.04432508 0.040474873 0.06177174 -0.095156424 -0.06370032 -0.06980165 -0.62639433 0.49503425
0.022407135 -0.08272687 0.032402225 -0.04693205 -0.14141637 0.11075186 0.04844919 -0.11640326
-0.21277304 -0.0140652945 0.06607712 0.0864585 -0.13617675 0.09485824 -0.16035576 0.09113544
00000000: 9400 22bc cc05 c8bc 95d6 34be c704 02be
00000010: 2426 98bd 1f3b 013d 1fe6 e53b 7888 66bd
00000020: a02b f5bc 7373 4f3d e5b0 67bc ddd2 d4bd
00000030: 6fa9 5cbd d151 0abe 35f8 903c d641 15be
00000040: d05b 4fbd 6ab6 7dbd 0585 2fbd 1761 2b3e
00000050: e94c 83be 6a0b f9bf c73e d63e 8e6f 67be
00000060: 7458 ebbd 3a08 90be ed70 63bd f207 08be
00000070: 72a1 933d cd09 03bd d3a3 2cbe c22d ac3d
00000080: ddda d1bd dc1c b8bd 58fe 193e 7549 5a3e
00000090: 7f1c b63b f5b3 01be c2ff 053e f217 9fbd
000000a0: 59e5 19be f7ea 6a3d 5bf8 abbf 83d8 f93e
000000b0: 936a 6abd 1073 91bd 7bb7 0abe 0456 43be
000000c0: cdd5 86be 0889 39bc 033a 143d 7f6d 163d
000000d0: 17d8 0dbe 3e2c 8f3d e1e9 82bd 9171 83be
000000e0: 221d 973c fe66 b1bc 1449 40be 7ed0 c83b
000000f0: 95e3 c3bd 6bbf a53d 4ff9 d63c 3746 60bf
00000100: 0a04 9a3f af6e 203d 1c1a b63d 78f1 fbbd
00000110: 01be 47be 51a4 09be 72a2 e83f 5ba2 b0be
00000120: 9c69 243e ace3 463e 5028 573e 962b 533e
00000130: 3624 4f3e 61e0 2140 fbf6 d33e e8b8 4cbd
00000140: a868 6f3d d4b4 bd3c b219 12be 4feb a8bd
00000150: 8f69 3fbe 3417 b23e 003a b7bd bb0f e1bc
00000160: 3260 9e3d 8359 29be ad15 c13c 76a9 c83d
00000170: e402 133e 4348 593d f7f3 dabb c226 383d
00000180: 255f f8bd 5225 95bd 1786 313d fc65 27bc
00000190: f350 47be f549 84bd 2e3e 19be 136c e5bd
000001a0: b5b7 673d a135 e73f 9041 04bf 11c5 313e
000001b0: de2a 553d da34 b13e 0cea c13d 4c43 8d3e
000001c0: c2f5 e13f 728b 13bf a7c7 2c3e d5da 003e
000001d0: 8aab aa3e 1355 f83d 77bd 463e b59f 40bf
000001e0: f3f1 923e af1b cabd b156 013d 3780 04be
000001f0: dbce a43d adf4 89be 925a 66bf 5969 1940
00000200: 2f85 443e 9e72 bbbc 9ede a03e cef2 3c3d
00000210: af49 203e fe8f 64bf 85d2 4e3e d944 19be
00000220: 6f8e 22be f6bf 603c 06cc b7be c72c ee3d
00000230: a64d 90bf ffc4 493e dfe8 3abd 02da 75bd
00000240: 6abc 14be d62c 67be 3a42 1fbe ff5e 6ebd
00000250: 8cce 013e e14b 13be ec33 91bd 5a34 d3bd
00000260: dbad e53d 8580 303c 9c03 503e 5a43 193e
00000270: 59ce 323c c4f0 10bd fcb5 f3bc def6 40bd
00000280: 8ae4 2dbe eb50 e63d f725 18be a239 4ebe
00000290: bf77 d83d 35af 0bbe 0bc2 223d f8ce a5bd
000002a0: 1d2d 56be 8943 e63d f50c c7bd c211 5c3d
000002b0: 30c0 573b e73d 9fbd 8378 72bd fac3 4dbf
000002c0: 57ca 263f e8e5 5ebc 2a6a 37be 111e 0fbe
000002d0: 4bab 63bd 62d3 203d 9757 44bf 2793 133f
000002e0: 2933 1b3c 29a8 1abd be95 fdbd 3dde 41bd
000002f0: 98eb 04be 3a17 a6bd 65b1 14bc 34e1 17bd
00000300: ffb7 f43d e932 33be 7024 0cbe 778a c9bc
00000310: e154 c83d 945e 673d de10 e4bd e496 073e
00000320: 2b83 04bd 06a8 aebd 0d99 2cbc a29f b2bf
00000330: 8a0f dfbd 3d42 60be 21de 71be 67bd 69be
00000340: f9be 90bd 25e2 94be 2955 453c 5b11 02bd
00000350: f2d9 79bd 38eb 25bd 46cf b63c 2e6f 9bbd
00000360: 5ba6 46bd 7e25 b3bd d49e 69bb 2e74 8fbc
00000370: e8c4 8a3d e759 cdbc 61b0 b7bd 33f4 a8bd
00000380: 5dad 54bd a211 f2bc 66ce b5bd 9790 19be
00000390: e105 553d 7dca 53bd 795d 3d3d 1683 bd3c
000003a0: 378e 353d fbc8 253d 5d04 7d3d 5fe1 c2bd
000003b0: 5075 82bd 2bf4 8ebd 615b 20bf 2175 fd3e
000003c0: 2b8f b73c b56c a9bd 32b8 043d d23b 40bd
000003d0: 74cf 10be dfd1 e23d a872 463d d564 eebd
000003e0: 2de1 59be 1f72 66bc 7153 873d 2711 b13d
000003f0: eb71 0bbe 0945 c23d 4d34 24be 38a5 ba3d

bias f4 [64]
0.1 0.1 0.09400855 -0.050399724 0.08719027 0.021224294 -0.06907625 0.1
0.056281753 -0.052564837 0.27493533 0.027211765 0.039519303 -0.00447724 0.1 0.2820205
0.25319475 -0.036460202 0.18383777 -0.049828354 -0.15127102 0.090540126 -0.01263705 0.1
0.06681819 0.022460105 0.02578115 0.1 0.08290149 -0.15200248 0.1 0.069809265
0.094007246 0.1 -0.024691796 0.1 0.08871019 -0.08517245 0.1 0.07801148
0.3757156 0.061130982 0.1 -0.057200436 0.02070133 -0.05159868 0.07576757 0.009995698
0.1 0.27491015 -0.09871178 -0.03581661 -0.06319724 0.1 0.048705302 0.1
-0.10990692 0.07165377 0.1 0.18464929 0.30595714 0.1612757 0.1 0.08894278
00000000: cdcc cc3d cdcc cc3d 8e87 c03d f16f 4ebd
00000010: d090 b23d 92de ad3c d977 8dbd cdcc cc3d
00000020: b287 663d 3a4e 57bd 53c4 8c3e 35eb de3c
00000030: fede 213d d0b5 92bb cdcc cc3d fe64 903e
00000040: bea2 813e 4b57 15bd f83f 3c3e d118 4cbd
00000050: cae6 1abe 1a6d b93d a10b 4fbc cdcc cc3d
00000060: fad7 883d 41fe b73c fe32 d33c cdcc cc3d
00000070: 42c8 a93d 8aa6 1bbe cdcc cc3d 29f8 8e3d
00000080: df86 c03d cdcc cc3d 7346 cabc cdcc cc3d
00000090: b0ad b53d e56e aebd cdcc cc3d 7cc4 9f3d
000000a0: cc5d c03e 7b64 7a3d cdcc cc3d 014b 6abd
000000b0: d695 a93c 2359 53bd 072c 9b3d ffc4 233c
000000c0: cdcc cc3d 06c1 8c3e 6729 cabd 70b4 12bd
000000d0: 8e6d 81bd cdcc cc3d 367f 473d cdcc cc3d
000000e0: e116 e1bd 36bf 923d cdcc cc3d b414 3d3e
000000f0: 6aa6 9c3e 7525 253e cdcc cc3d a227 b63d

weight f4 [64, 64]
0.10006392 -0.051134482 0.006606519 -0.10113371 -0.046571642 -0.07635474 -0.10244174 0.0041167736
-0.024034157 -0.08993702 -0.020145362 -2.0403 -0.055415735 0.07178095 0.118260935 -0.064110756
-0.14439635 0.07445224 -0.054387145 -0.03829971 0.101622686 0.09212591 -0.071164116 -0.093457535
-0.002949074 -0.092509404 -0.08248317 -0.0770517 0.03850688 0.09208937 -0.036628723 -0.01800859
0.037192345 0.02361855 0.017858952 0.044562593 0.03639792 -0.8361407 0.06830931 0.15654871
-0.011673435 0.00940299 0.106310666 0.07860865 0.04749337 -0.05500275 0.015359059 -0.03878461
0.037268654 0.029402753 -0.10248239 0.004678607 0.0025866777 -0.11929114 -0.01975185 0.053573683
0.061873436 -0.12171383 -0.11453891 -0.21040392 -0.16111645 0.16310565 -0.07631974 0.026869595
0.056734234 0.0945418 0.10556251 0.022419374 -0.08511765 -0.09295033 -0.0353076 -0.05594845
-0.08776788 -0.11548988 -0.061642796 -0.15691613 -0.06098417 -0.077639006 0.092006534 -0.0088575445
-0.11121292 -0.11126801 -0.1434854 -0.08269924 -0.09163842 0.09537153 0.120189875 -0.049096197
0.056417823 -0.035448343 0.05746092 -0.02091214 0.109515935 -0.13578914 0.07777524 -0.023443013
-0.10653712 -0.093321115 -0.11157851 -0.0012874007 -0.0020789504 -0.11459771 -0.045414343 0.061292037
-0.021140967 -0.0961684 0.027277738 -0.017994534 0.05510758 -0.04360017 0.08025223 0.12184122
0.0764536 -0.08435997 0.0486995 0.12339187 -0.10586254 0.08060941 -0.006576274 -0.060509175
-0.06780926 -0.06663904 0.032541215 -0.0879337 -0.15015467 0.09157411 0.06947765 0.04430586
-0.11519891 -0.05247186 -0.022765746 0.050744586 0.032408863 0.053057056 -0.040420555 0.123620495
-0.12880796 0.09916086 0.08444967 -0.070880294 0.0077150348 0.07642758 -0.118669525 -0.08484434
-0.08332589 0.026376585 0.08608633 -0.038342506 -0.039782353 -0.005859904 -0.0153463 -0.08390336
0.06435636 -0.008129102 0.07822023 -0.008036405 0.041241035 0.09507853 -0.12015794 0.10649859
-0.013786495 0.07052362 -0.08615186 0.02466692 -0.086320065 -0.025007999 -0.014871225 -0.15302943
-0.066138715 0.089003935 0.0011010766 -0.13133512 0.06875894 0.10582907 0.09460377 0.012996727
0.062777996 -0.19666336 -0.1224181 -0.03341096 0.09776256 0.019072354 0.009338974 -0.094784915
-0.026801025 0.04051003 -0.053643033 0.0502005 0.0658768 -0.031210102 0.032492757 -0.06342416
0.11483067 -0.0153244585 0.07384377 0.5060436 0.05506056 -0.15727495 2.736361 0.11470929
-0.034753077 0.03539409 -0.9944338 -0.62775433 0.19554918 0.06728217 -0.09092803 -0.8984874
-0.8919266 0.119448766 0.91251856 0.13907677 0.2836974 0.0633179 0.029778082 -0.046069294
-0.05366892 1.978966 0.8191693 0.11176187 -0.039788593 0.21081273 -0.07166371 0.10319819
0.038226906 0.10732463 -0.049654987 0.11439507 0.130443 0.74960417 -0.06215249 0.67845625
-0.96041095 -0.06686854 0.10367328 0.34672052 2.1336205 1.6996073 -0.10736366 0.050719775
0.050456077 0.38288987 0.18026657 2.4679112 2.1299472 -0.10340144 -0.15021291 -0.09311317
0.25077647 -0.06184545 -0.020421505 -0.5878655 -0.17734276 0.079387926 -0.015627384 0.0019822018
00000000: 50ee cc3d 6472 51bd 807b d83b 311f cfbd
00000010: e8c1 3ebd e05f 9cbd facc d1bd 00e6 863b
00000020: 48e3 c4bc e630 b8bd e307 a5bc 4694 02c0
00000030: 9cfb 62bd e401 933d ca32 f23d 804c 83bd
00000040: a3dc 13be 6a7a 983d 0ec5 5ebd 28e0 1cbd
00000050: 8e1f d03d 82ac bc3d 7ebe 91bd aa66 bfbd
00000060: 4045 41bb 9275 bdbd f0ec a8bd 48cd 9dbd
00000070: 64b9 1d3d 5a99 bc3d 0008 16bd c086 93bc
00000080: 0057 183d b07b c13c f04c 923c 4487 363d
00000090: fc15 153d 510d 56bf c0e5 8b3d 4e4e 203e
000000a0: ef41 3fbc 000f 1a3c 68b9 d93d 92fd a03d
000000b0: 6888 423d 904a 61bd 90a4 7b3c 9cdc 1ebd
000000c0: 04a7 183d 0bde f03c 4ae2 d1bd 004f 993b
000000d0: 4085 293b ea4e f4bd a2ce a1bc 1470 5b3d
000000e0: 006f 7d3d 1a45 f9bd 6093 eabd 2074 57be
000000f0: b6fb 24be 2b05 273e 864d 9cbd a01d dc3c
00000100: 2862 683d 229f c13d 2831 d83d d6a8 b73c
00000110: 2a52 aebd be5c bebd b49e 10bd 342a 65bd
00000120: a5bf b3bd f585 ecbd 287d 7cbd 9fae 20be
00000130: 89ca 79bd 3301 9fbd ec6d bc3d 3c1f 11bc
00000140: 99c3 e3bd 7ce0 e3bd d6ed 12be 385e a9bd
00000150: edac bbbd 2652 c33d 1c26 f63d 1819 49bd
00000160: 6016 673d 4832 11bd 245c 6b3d f04f abbc
00000170: e449 e03d 4f0c 0bbe a048 9f3d 900b c0bc
00000180: 2230 dabd 241f bfbd 4683 e4bd 00be a8ba
00000190: 003f 08bb 34b2 eabd 6404 3abd 5c0d 7b3d
000001a0: d22f adbc f0f3 c4bd 9075 df3c 4669 93bc
000001b0: 7cb8 613d 1896 32bd 485b a43d e487 f93d
000001c0: b493 9c3d ecc4 acbd 2079 473d e0b4 fc3d
000001d0: 76ce d8bd 8c16 a53d c97d d7bb 78d8 77bd
000001e0: 95df 8abd 0d7a 88bd f049 053d 9516 b4bd
000001f0: 25c2 19be 358b bb3d 4c4a 8e3d 107a 353d
00000200: 68ed ebbd bcec 56bd 3b7f babc 8ed9 4f3d
00000210: 28bf 043d 5b52 593d 0690 25bd be2c fd3d
00000220: 3ce6 03be d914 cb3d f3f3 ac3d b029 91bd
00000230: 67ce fc3b 1086 9c3d 0209 f3bd dfc2 adbd
00000240: c4a6 aabd b513 d83c 084e b03d 080d 1dbd
00000250: d2f2 22bd 7004 c0bb 0c6f 7bbc 86d5 abbd
00000260: 44cd 833d ed2f 05bc ee31 a03d 20ab 03bc
00000270: 5cec 283d 88b8 c23d 5e15 f6bd ef1b da3d
00000280: c0e0 61bc b06e 903d 6370 b0bd 4812 ca3c
00000290: 93c8 b0bd 93dd ccbc 70a6 73bc bfb3 1cbe
000002a0: bc73 87bd b247 b63d 0052 903a b77c 06be
000002b0: 7dd1 8c3d e9bc d83d 9fbf c13d 39f0 543c
000002c0: c091 803d 1f62 49be 57b6 fabd eed9 08bd
000002d0: bd37 c83d a03d 9c3c 7f02 193c 981e c2bd
000002e0: d38d dbbc d8ed 253d ccb8 5bbd 0a9f 4d3d
000002f0: 6aea 863d 54ac ffbc 2017 053d 87e4 81bd
00000300: 582c eb3d 7013 7bbc 673b 973d 138c 013f
00000310: 2f87 613d af0c 21be 8a20 2f40 b4ec ea3d
00000320: 3e59 0ebd 65f9 103d 3793 7ebf 82b4 20bf
00000330: 0b3e 483e 3ccb 893d 7a38 babd 4503 66bf
00000340: 4d55 64bf 8ea1 f43d d19a 693f 246a 0e3e
00000350: c940 913e d1ac 813d 2af1 f33c 28b3 3cbd
00000360: f1d3 5bbd c24e fd3f 14b5 513f 68e3 e43d
00000370: 5df9 22bd 4bdf 573e 6cc4 92bd 9359 d33d
00000380: d193 1c3d 04cd db3d 0763 4bbd f647 ea3d
00000390: da92 053e 0fe6 3f3f 9c93 7ebd 4faf 2d3f
000003a0: 7edd 75bf 60f2 88bd a852 d43d 5a85 b13e
000003b0: 3d8d 0840 bb8c d93f 7be1 dbbd 8abf 4f3d
000003c0: 08ab 4e3d 240a c43e cd97 383e 42f2 1d40
000003d0: 0e51 0840 22c4 d3bd 6ad1 19be 1eb2 bebd
000003e0: c665 803e a851 7dbd 004b a7bc 5a7e 16bf
000003f0: 5799 35be 2396 a23d 0005 80bc d4e7 013b

bias f4 [64]
-0.08536811 -0.0045705484 -0.08980845 -0.38664317 0.010420069 0.0339002 -0.122091845 -0.14448555
0.64505994 -0.14570175 -0.10951951 0.07281595 0.6117675 -0.07752003 -0.03584818 -0.055327766
-0.11858143 0.0645701 -0.0805636 0.1636493 -0.24782269 -0.040628947 0.11351054 -0.00263316
-0.11390021 -0.04349105 -0.100781985 -0.0887312 0.19137202 -0.021519994 -0.12525438 -0.32973665
0.99310136 -0.13751271 -0.04072922 -0.12924339 -0.014544887 -0.07309934 -0.032928463 0.069406
0.074442014 -0.16608812 -0.52137 -0.5247467 -0.45314756 -0.20923007 -0.14828908 0.11152664
-0.04455785 0.0021387704 0.02053736 -0.5687456 -0.014764323 -0.064996704 -0.011581796 0.22413515
-0.14727364 -0.07372886 0.0048461226 0.025695657 0.06412238 0.05366167 -0.08147862 -0.063095585
00000000: 7ad5 aebd 8ac4 95bb 7eed b7bd 18f6 c5be
00000010: f0b8 2a3c f0da 0a3d 4a0b fabd 05f4 13be
00000020: a622 253f d732 15be c44b e0bd 8720 953d
00000030: cb9c 1c3f d2c2 9ebd 8bd5 12bd 5e9f 62bd
00000040: d2da f2bd 543d 843d 87fe a4bd af93 273e
00000050: 3bc5 7dbe 8a6a 26bd 3778 e83d 1891 2cbb
00000060: 8344 e9bd ac23 32bd c966 cebd b4b8 b5bd
00000070: 07f7 433e b34a b0bc af42 00be 3ed3 a8be
00000080: e43b 7e3f 22d0 0cbe afd3 26bd 6158 04be
00000090: ad4d 6ebc 1bb5 95bd ffdf 06bd bc24 8e3d
000000a0: 0e75 983d 0113 2abe 8178 05bf cd55 06bf
000000b0: f502 e8be 6840 56be 18d9 17be 1468 e43d
000000c0: 4b82 36bd 9d2a 0c3b f73d a83c 5099 11bf
000000d0: 0fe6 71bc fe1c 85bd 93c1 3dbc af83 653e
000000e0: e7ce 16be 28ff 96bd 39cc 9e3b b37f d23c
000000f0: 9852 833d 57cc 5b3d 43de a6bd 4238 81bd

weight f4 [2, 64]
0.11599298 0.18993878 -0.16217858 -8.011393 -0.13508259 0.18420824 -0.23450196 0.13070998
2.2222142 0.1263418 0.18456814 -4.690273 2.7005181 -0.13413413 -0.08606492 0.0887111
0.037298765 0.03929919 0.0031858482 -0.84261596 -0.4350487 0.029167559 4.548508 0.066509664
0.017295495 -0.20146047 0.09534436 0.0047970917 5.7186484 -0.09042105 -0.028935384 -7.690203
1.3134377 0.14420745 0.11006938 -0.023313744 -0.073548585 0.0028514839 0.15008871 -0.04531018
-2.4675715 0.057159144 -0.004568977 -8.237015 -6.891832 0.10259861 -0.123647526 -0.038670484
0.005695721 -0.1002386 -0.012764855 -5.967445 0.02376914 -0.060625203 -1.378445 0.5960668
-0.5174509 0.003930839 -0.15415056 -0.00916375 0.032707628 0.07829336 -1.3730888 0.009512621
0.33522648 0.077632934 0.061441716 -1.4322861 -0.14678308 0.14569342 0.6776131 -0.10507038
1.069131 0.016626187 0.029793264 -6.120753 1.128109 -0.034375682 0.1292765 0.13427638
-0.048579715 0.14546129 -0.26907012 -4.3539276 -0.09215275 0.04760669 0.040226843 0.019063301
0.028985627 0.14386697 -0.007695603 0.074429795 -1.011986 0.09502262 0.046259172 -1.4774452
3.076871 0.11794364 -0.0126078585 0.011748149 0.068779364 -0.062884845 0.024681823 0.023305494
-6.8549457 1.0301597 4.1162724 -1.8128358 -1.6958328 0.05445492 0.11116459 0.0858831
0.049772255 -0.08043202 0.021729063 -2.5042007 -0.011380306 0.071082495 2.153735 0.5336333
-1.2341504 -0.18069412 -0.07850375 -0.01976557 0.021509852 -0.007395947 2.6667135 -0.0036180671
00000000: ba8d ed3d 507f 423e 2412 26be aa2e 00c1
00000010: 1753 0abe 16a1 3c3e 4821 70be d6d8 053e
00000020: c238 0e40 bf5f 013e 6eff 3c3e b716 96c0
00000030: 4ad5 2c40 755a 09be ce42 b0bd 2aae b53d
00000040: 97c6 183d 30f8 203d aac9 503b aeb5 57bf
00000050: b4be debe cef0 ee3c 618d 9140 3836 883d
00000060: 48af 8d3c a74b 4ebe e743 c33d ec30 9d3b
00000070: 2bff b640 ac2e b9bd e609 edbc 2516 f6c0
00000080: ba1e a83f 1eab 133e 0e6c e13d 77fc bebc
00000090: a4a0 96bd f6df 3a3b dbb0 193e 2b97 39bd
000000a0: b1ec 1dc0 b51f 6a3d 5bb7 95bb d0ca 03c1
000000b0: e389 dcc0 381f d23d ea3a fdbd f164 1ebd
000000c0: 2ca3 ba3b e549 cdbd af23 51bc 4ff5 bec0
000000d0: 80b7 c23c 2252 78bd e370 b0bf d597 183f
000000e0: aa77 04bf 44ce 803b a5d9 1dbe 8e23 16bc
000000f0: 6ff8 053d 4558 a03d 60c1 afbf d3da 1b3c
00000100: cea2 ab3e 04fe 9e3d 4faa 7b3d 2755 b7bf
00000110: 4e4e 16be a830 153e 0d78 2d3f 242f d7bd
00000120: 49d9 883f a433 883c 0111 f43c 35dd c3c0
00000130: e065 903f 84cd 0cbd 0f61 043e bf7f 093e
00000140: 86fb 46bd cef3 143e 8fc3 89be 6053 8bc0
00000150: 95ba bcbd 3cff 423d e7c4 243d a42a 9c3c
00000160: 4473 ed3c dd51 133e 662b fcbb a66e 983d
00000170: c288 81bf 389b c23d 427a 3d3d ed1c bdbf
00000180: 74eb 4440 6f8c f13d 3191 4ebc 4f7b 403c
00000190: 32dc 8c3d c5c9 80bd 8931 ca3c 2aeb be3c
000001a0: b75b dbc0 46dc 833f 81b8 8340 010b e8bf
000001b0: 0d11 d9bf 1f0c 5f3d 43aa e33d 7be3 af3d
000001c0: fedd 4b3d 8bb9 a4bd 2601 b23c d344 20c0
000001d0: 7774 3abc b393 913d cbd6 0940 319c 083f
000001e0: a4f8 9dbf e107 39be 93c6 a0bd 68eb a1bc
000001f0: 6e35 b03c b359 f2bb 6fab 2a40 181d 6dbb

bias f4 [2]
2.6904514 0.77382344
00000000: 5b30 2c40 4b19 463f
