强化学习TD3_py/run/actor_target.pt (torch, 22207 bytes, 6 tensors)

weight f4 [64, 7]
0	0xbc220116	-0.009887954
1	0xbcc805e8	-0.024416879
2	0xbe34d630	-0.17659831
3	0xbe0204cd	-0.12697144
4	0xbd98266d	-0.07429204
5	0x3d013b3c	0.03155063
6	0x3be5e65a	0.0070159854
7	0xbd6688da	-0.056282856
8	0xbcf52af4	-0.029927708
9	0x3d4f7379	0.050647233
10	0xbc67b02c	-0.014141124
11	0xbdd4d27a	-0.10391708
12	0xbd5ca8ba	-0.053871848
13	0xbe0a51cd	-0.13507767
14	0x3c90f8ed	0.017696822
15	0xbe1541ce	-0.14575884
16	0xbd4f5c08	-0.050624877
17	0xbd7db674	-0.06194158
18	0xbd2f8477	-0.042850938
19	0x3e2b6117	0.16736256
20	0xbe834ced	-0.25644627
21	0xbff89aef	-1.9422282
22	0x3ed65bb6	0.41866845
23	0xbe683bbb	-0.22679035
24	0xbdecf0c9	-0.115693636
25	0xbe906e57	-0.28209183
26	0xbd66a189	-0.056306396
27	0xbe08d422	-0.13362172
28	0x3d93a22d	0.07208667
29	0xbd030a84	-0.03199245
30	0xbe2ca3bf	-0.16859339
31	0x3dac2e8e	0.08407317
32	0xbdd1da52	-0.102467194
33	0xbdb81c78	-0.08989805
34	0x3e19ff15	0.15038712
35	0x3e5a48ea	0.21316877
36	0x3bb61bf8	0.0055575334
37	0xbe01b38d	-0.1266615
38	0x3e060054	0.13086063
39	0xbd9f17c6	-0.07768206
40	0xbe19e54e	-0.15028879
41	0x3d6aeb82	0.057353504
42	0xbfabf8a6	-1.3435256
43	0x3ef9d7d4	0.48797476
44	0xbd6a6a9b	-0.057230573
45	0xbd9172ce	-0.071019754
46	0xbe0ab75d	-0.1354651
47	0xbe4355e9	-0.19075741
48	0xbe86d59d	-0.2633485
49	0xbc398888	-0.0113240555
50	0x3d1439be	0.03618788
51	0x3d166d06	0.036725067
52	0xbe0dd75d	-0.13851686
53	0x3d8f2cc4	0.0699096
54	0xbd82e9b5	-0.06392232
55	0xbe8370dd	-0.25672045
56	0x3c971d95	0.018446723
57	0xbcb16747	-0.021655692
58	0xbe4048a9	-0.18777718
59	0x3bc8d108	0.006128434
60	0xbdc3e351	-0.095648415
61	0x3da5bfae	0.080932006
62	0x3cd6fa09	0.026242273
63	0xbf604682	-0.87607586
64	0x3f9a048d	1.2032639
65	0x3d206ebe	0.039168112
66	0x3db61a67	0.088917546
67	0xbdfbf154	-0.12301889
68	0xbe47be09	-0.19506086
69	0xbe09a395	-0.13441308
70	0x3fe89448	1.8170252
71	0xbeaebec0	-0.34129906
72	0x3e2421be	0.16028497
73	0x3e469bba	0.19395342
74	0x3e56e070	0.20984054
75	0x3e52e3b1	0.2059467
76	0x3e4edc45	0.20201214
77	0x4021e10e	2.5293612
78	0x3ed3f7b9	0.41399935
79	0xbd4cb841	-0.049980406
80	0x3d6f68ba	0.058449484
81	0x3cbdb547	0.023157729
82	0xbe121936	-0.1426743
83	0xbda8ea9f	-0.082478754
84	0xbe3f69ff	-0.18692778
85	0x3eb217d7	0.34783813
86	0xbdb739e8	-0.089465916
87	0xbce10f4b	-0.027473113
88	0x3d9e60f5	0.07733337
89	0xbe2958c7	-0.16537772
90	0x3cc11620	0.02357012
91	0x3dc8a931	0.09797896
92	0x3e130395	0.14356835
93	0x3d5948a9	0.05304781
94	0xbbdaf402	-0.00668192
95	0x3d382767	0.044959452
96	0xbdf85e7c	-0.121273965
97	0xbd9524e6	-0.072824284
98	0x3d318687	0.043341186
99	0xbc27658f	-0.010217085
100	0xbe4750a9	-0.19464363
101	0xbd844945	-0.064592876
102	0xbe193e1e	-0.14965102
103	0xbde56bb3	-0.112021826
104	0x3d67b733	0.056571197
105	0x3fe71da2	1.8055918
106	0xbf0358fe	-0.51307666
107	0x3e319db2	0.17345312
108	0x3d548d41	0.051892523
109	0x3eb12134	0.34595644
110	0x3dc19b46	0.09453444
111	0x3e8d2fa3	0.27575406
112	0x3fe1e73c	1.7648692
113	0xbf129868	-0.57263803
114	0x3e2c6fa6	0.16839465
115	0x3e0082d7	0.12549911
116	0x3eaa7f88	0.33300424
117	0x3df7a505	0.12092022
118	0x3e46657f	0.19374655
119	0xbf40a028	-0.7524438
120	0x3e92f19e	0.28699964
121	0xbdca1b81	-0.09868527
122	0x3d01575c	0.031577453
123	0xbe047ff5	-0.12939437
124	0x3da4cf0e	0.08047305
125	0xbe89f40d	-0.26944008
126	0xbf658cad	-0.8966778
127	0x40197577	2.3977945
128	0x3e43cdf7	0.19121538
129	0xbcc12cdc	-0.02358096
130	0x3ea08303	0.31349954
131	0x3d3a15bb	0.04543088
132	0x3e1f926f	0.15583204
133	0xbf64902a	-0.89282477
134	0x3e4ed289	0.201975
135	0xbe19445e	-0.14967486
136	0xbe228db7	-0.15874372
137	0x3c60c062	0.013717743
138	0xbeb7cc00	-0.35897827
139	0x3dee2d1a	0.11629696
140	0xbf904dd5	-1.1273752
141	0x3e49c4c9	0.19703974
142	0xbd3ae8e0	-0.045632243
143	0xbd75d9f4	-0.06002231
144	0xbe14bc36	-0.14524922
145	0xbe672c23	-0.2257543
146	0xbe1f41f6	-0.15552506
147	0xbd6e5e53	-0.058195423
148	0x3e01ce1d	0.12676282
149	0xbe134b76	-0.14384255
150	0xbd913386	-0.070899054
151	0xbdd333a2	-0.103125826
152	0x3de5ae1a	0.11214848
153	0x3c308008	0.0107727125
154	0x3e50033a	0.20313731
155	0x3e1942ce	0.1496689
156	0x3c32cea7	0.010913528
157	0xbd10f056	-0.035385452
158	0xbcf3b584	-0.02974964
159	0xbd40f6e1	-0.047110442
160	0xbe2de40f	-0.16981529
161	0x3de6509b	0.11245843
162	0xbe1825a6	-0.14858112
163	0xbe4e3969	-0.20139088
164	0x3dd8774a	0.105696276
165	0xbe0baf05	-0.13640983
166	0x3d22c20f	0.03973585
167	0xbda5ce87	-0.080960326
168	0xbe562c92	-0.2091544
169	0x3de64353	0.1124331
170	0xbdc70cb1	-0.097192176
171	0x3d5c11f1	0.053728048
172	0x3b57bfb2	0.0032920656
173	0xbd9f3e0d	-0.07775507
174	0xbd727854	-0.059196785
175	0xbf4dc438	-0.8037753
176	0x3f26ca17	0.65152115
177	0xbc5ee562	-0.013604494
178	0xbe376990	-0.17911363
179	0xbe0f1ded	-0.1397626
180	0xbd63ab43	-0.05558325
181	0x3d20d386	0.039264224
182	0xbf4457b8	-0.7669635
183	0x3f139355	0.57646686
184	0x3c1b33ad	0.00947277
185	0xbd1aa7d6	-0.037757717
186	0xbdfd95a4	-0.12382057
187	0xbd41de21	-0.04733098
188	0xbe04eafd	-0.12980266
189	0xbda6172f	-0.08109891
190	0xbc14b20d	-0.009075654
191	0xbd17e0e6	-0.037079714
192	0x3df4b754	0.119490296
193	0xbe3332a8	-0.17499793
194	0xbe0c2435	-0.13685687
195	0xbcc98a31	-0.024602028
196	0x3dc854d1	0.097818024
197	0x3d675e23	0.05648626
198	0xbde410d3	-0.111360215
199	0x3e079695	0.13241036
200	0xbd0483dc	-0.032352313
201	0xbdaea75f	-0.08528017
202	0xbc2c98cf	-0.010534479
203	0xbfb29fc7	-1.395501
204	0xbddf1059	-0.1089179
205	0xbe6041d3	-0.2190011
206	0xbe71dda4	-0.23619705
207	0xbe69bd2b	-0.22826068
208	0xbd90be56	-0.07067554
209	0xbe94e1b6	-0.29078454
210	0x3c4554d9	0.012044155
211	0xbd02114d	-0.03175478
212	0xbd79d964	-0.060998335
213	0xbd25eaa7	-0.040506985
214	0x3cb6cee0	0.022315443
215	0xbd9b6f0e	-0.075895414
216	0xbd46a720	-0.048499227
217	0xbdb32627	-0.08747511
218	0xbb699eb3	-0.003564757
219	0xbc8f73dd	-0.017511303
220	0x3d8ac4a5	0.06775788
221	0xbccd59f8	-0.025067315
222	0xbdb7afe0	-0.08969092
223	0xbda8f3ff	-0.082496636
224	0xbd54acfa	-0.051922776
225	0xbcf211fb	-0.02954959
226	0xbdb5cdd8	-0.08877152
227	0xbe199026	-0.14996395
228	0x3d550542	0.052006967
229	0xbd53ca6a	-0.05170671
230	0x3d3d5d00	0.04623127
231	0x3cbd8280	0.023133516
232	0x3d358dc8	0.044324666
233	0x3d25c847	0.040474202
234	0x3d7d0454	0.061771706
235	0xbdc2e0b9	-0.09515519
236	0xbd82754d	-0.063700296
237	0xbd8ef3bd	-0.06980083
238	0xbf205b37	-0.6263918
239	0x3efd759b	0.49503788
240	0x3cb78f10	0.022407085
241	0xbda96d16	-0.082727596
242	0x3d04b835	0.032402236
243	0xbd403c28	-0.04693237
244	0xbe10cf85	-0.14141662
245	0x3de2d14b	0.11075076
246	0x3d467201	0.048448566
247	0xbdee6493	-0.11640277
248	0xbe59e102	-0.2127724
249	0xbc66716b	-0.014065127
250	0x3d87542c	0.066078514
251	0x3db11090	0.08645737
252	0xbe0b714d	-0.1361744
253	0x3dc24479	0.094857164
254	0xbe243397	-0.16035305
255	0x3dbaa5af	0.09113633

bias f4 [64]
0	0x3dcccccd	0.1
1	0x3dcccccd	0.1
2	0x3dc087f0	0.09400928
3	0xbd51a088	-0.051178485
4	0x3db290ef	0.0871905
5	0x3caddf5e	0.021224674
6	0xbd8d7745	-0.069075145
7	0x3dcccccd	0.1
8	0x3d668812	0.05628211
9	0xbd574da2	-0.05256427
10	0x3e8ca05b	0.27466092
11	0x3cdeeba1	0.027211966
12	0x3d21df7e	0.03951978
13	0xbb92b576	-0.0044771982
14	0x3dcccccd	0.1
15	0x3e905154	0.28187048
16	0x3e8176bc	0.252859
17	0xbd1556e6	-0.036459826
18	0x3e3b88be	0.18313882
19	0xbd4c1819	-0.04982767
20	0xbe1ae656	-0.15126929
21	0x3db96d2f	0.09054028
22	0xbc4f0b91	-0.012637035
23	0x3dcccccd	0.1
24	0x3d88d874	0.0668191
25	0x3cb7fec7	0.022460354
26	0x3cd333a1	0.025781455
27	0x3dcccccd	0.1
28	0x3da9c87e	0.08290194
29	0xbe1ba686	-0.15200242
30	0x3dcccccd	0.1
31	0x3d8ef86c	0.069809765
32	0x3dc08728	0.09400779
33	0x3dcccccd	0.1
34	0xbcca4740	-0.024692178
35	0x3dcccccd	0.1
36	0x3db5adcf	0.08871042
37	0xbdaffd57	-0.085932426
38	0x3dcccccd	0.1
39	0x3da02713	0.07819953
40	0x3ec0157f	0.375164
41	0x3d7a653b	0.061131697
42	0x3dcccccd	0.1
43	0xbd6a4a93	-0.057200026
44	0x3ca9967e	0.020701643
45	0xbd535922	-0.051598676
46	0x3d9b2ca5	0.07576875
47	0x3c23c56e	0.009995801
48	0x3dcccccd	0.1
49	0x3e8ca8dc	0.2747258
50	0xbdca28c9	-0.098710604
51	0xbd12b3e6	-0.035816096
52	0xbd816d3d	-0.06319664
53	0x3dcccccd	0.1
54	0x3d475dc4	0.048673406
55	0x3dcccccd	0.1
56	0xbde11653	-0.10990586
57	0x3d92bf9d	0.071654536
58	0x3dcccccd	0.1
59	0x3e3e9611	0.18611933
60	0x3e9d3d64	0.307109
61	0x3e24fe84	0.16112715
62	0x3dcccccd	0.1
63	0x3db627af	0.08894288

weight f4 [64, 64]
0	0x3dccee29	0.10006363
1	0xbd51726a	-0.051134504
2	0x3bd87b32	0.006606483
3	0xbdcf1f19	-0.10113353
4	0xbd3ec207	-0.046571758
5	0xbd9c5fae	-0.07635437
6	0xbdd1cc42	-0.10244037
7	0x3b86e6cc	0.0041168686
8	0xbcc4e2c9	-0.02403392
9	0xbdb830c8	-0.08993679
10	0xbca5074f	-0.020145087
11	0xc00293c5	-2.0402691
12	0xbd62fb7b	-0.05541561
13	0x3d93013e	0.07177971
14	0x3df232cc	0.11826095
15	0xbd834c25	-0.06411008
16	0xbe13dbfe	-0.14439389
17	0x3d987a06	0.07445149
18	0xbd5ec492	-0.054386683
19	0xbd1ce095	-0.038300116
20	0x3dd01f5a	0.1016223
21	0x3dbcac70	0.09212577
22	0xbd91bdce	-0.071162805
23	0xbdbf6618	-0.09345645
24	0xbb414501	-0.0029490592
25	0xbdbd75ff	-0.092510216
26	0xbda8ecf7	-0.082483225
27	0xbd9dcd4e	-0.077051744
28	0x3d1db8fe	0.0385065
29	0x3dbc98e8	0.09208852
30	0xbd160776	-0.03662821
31	0xbc9386d5	-0.018008629
32	0x3d1856de	0.037192218
33	0x3cc17c78	0.023618922
34	0x3c924cc6	0.017858874
35	0x3d368700	0.04456234
36	0x3d151546	0.03639724
37	0xbf560d52	-0.83614075
38	0x3d8be5b5	0.068309225
39	0x3e204eb6	0.15655026
40	0xbc3f4160	-0.011673301
41	0x3c1a0eb6	0.009402921
42	0x3dd9b92a	0.1063102
43	0x3da0fcef	0.07860743
44	0x3d428938	0.047494143
45	0xbd614aaa	-0.055002846
46	0x3c7ba3fc	0.015358921
47	0xbd1edc66	-0.038784407
48	0x3d18a68e	0.037268214
49	0x3cf0de2b	0.029402813
50	0xbdd1e222	-0.102482095
51	0x3b994e86	0.00467855
52	0x3b298487	0.0025866346
53	0xbdf44ea4	-0.11929062
54	0xbca1ce4f	-0.019751696
55	0x3d5b7039	0.05357382
56	0x3d7d6e94	0.061873034
57	0xbdf944f4	-0.12171355
58	0xbdea933b	-0.11453863
59	0xbe5773ea	-0.21040311
60	0xbe24fb97	-0.16111599
61	0x3e270576	0.16310677
62	0xbd9c4cee	-0.07631861
63	0x3cdc1daa	0.026869614
64	0x3d686183	0.05673362
65	0x3dc19ed9	0.09454126
66	0x3dd830fa	0.105562165
67	0x3cb7a99f	0.022419749
68	0xbdae5236	-0.08511774
69	0xbdbe5c78	-0.09294981
70	0xbd109e4e	-0.03530722
71	0xbd652ada	-0.05594907
72	0xbdb3bf48	-0.087767184
73	0xbdec85ab	-0.11548933
74	0xbd7c7d2c	-0.06164281
75	0xbe20ae07	-0.15691386
76	0xbd79ca8c	-0.06098418
77	0xbd9f011e	-0.07763885
78	0x3dbc6df0	0.092006564
79	0xbc111f36	-0.008857539
80	0xbde3c37b	-0.11121269
81	0xbde3e063	-0.11126783
82	0xbe12edb6	-0.14348492
83	0xbda95e3f	-0.08269929
84	0xbdbbacf8	-0.091638505
85	0x3dc35201	0.095371254
86	0x3df625bc	0.12018916
87	0xbd4919b0	-0.049096763
88	0x3d671643	0.056417715
89	0xbd1132bd	-0.03544878
90	0x3d6b5cca	0.057461537
91	0xbcab50ae	-0.020912495
92	0x3de049a3	0.10951545
93	0xbe0b0bbd	-0.13578697
94	0x3d9f4836	0.07777445
95	0xbcc00bb8	-0.023443088
96	0xbdda2fea	-0.1065367
97	0xbdbf1f00	-0.09332085
98	0xbde482e3	-0.11157777
99	0xbaa8bd4f	-0.0012873801
100	0xbb083e8d	-0.0020789236
101	0xbdeab1b3	-0.11459675
102	0xbd3a03f8	-0.04541394
103	0x3d7b0d34	0.06129189
104	0xbcad2f97	-0.021140857
105	0xbdc4f4c0	-0.09616995
106	0x3cdf7522	0.027277533
107	0xbc936926	-0.017994475
108	0x3d61b80b	0.055107158
109	0xbd3295a0	-0.043599725
110	0x3da45aa7	0.08025103
111	0x3df9875c	0.12184021
112	0x3d9c933e	0.07645272
113	0xbdacc48f	-0.08435928
114	0x3d477948	0.048699647
115	0x3dfcb4a4	0.12339142
116	0xbdd8ce02	-0.10586168
117	0x3da51627	0.08060866
118	0xbbd77e11	-0.0065763076
119	0xbd77d81c	-0.060508832
120	0xbd8adf35	-0.067808546
121	0xbd8879ed	-0.066638805
122	0x3d054a4c	0.03254156
123	0xbdb41600	-0.08793259
124	0xbe19c226	-0.15015468
125	0x3dbb8b5f	0.09157442
126	0x3d8e4a35	0.069477476
127	0x3d357978	0.044305295
128	0xbdebed53	-0.115198754
129	0xbd56ecc2	-0.052471884
130	0xbcba7ea0	-0.022765458
131	0x3d4fd909	0.05074409
132	0x3d04be75	0.032408196
133	0x3d5952d1	0.053057496
134	0xbd259007	-0.04042056
135	0x3dfd2c2c	0.12361941
136	0xbe03e60d	-0.12880726
137	0x3dcb1580	0.0991621
138	0x3dacf436	0.08445017
139	0xbd912a25	-0.070881166
140	0x3bfcce6c	0.007715037
141	0x3d9c86bd	0.07642887
142	0xbdf308dc	-0.11866924
143	0xbdadc277	-0.08484357
144	0xbdaaa65f	-0.08332514
145	0x3cd8134a	0.026376385
146	0x3db04ecf	0.086087815
147	0xbd1d0d1d	-0.038342584
148	0xbd22f27f	-0.039782044
149	0xbbc004b0	-0.005859934
150	0xbc7b6fa3	-0.0153464405
151	0xbdabd57f	-0.083903305
152	0x3d83cd0d	0.06435595
153	0xbc052fbd	-0.0081290575
154	0x3da031cf	0.07822
155	0xbc03ab74	-0.008036483
156	0x3d28ecf6	0.04124161
157	0x3dc2b819	0.0950777
158	0xbdf61554	-0.12015787
159	0x3dda1b9a	0.10649796
160	0xbc61e0ab	-0.013786475
161	0x3d906ea6	0.070523545
162	0xbdb07068	-0.0861519
163	0x3cca1221	0.024666848
164	0xbdb0c7e8	-0.08631879
165	0xbcccdcf9	-0.025007712
166	0xbc73a6ab	-0.01487128
167	0xbe1cb346	-0.15302762
168	0xbd87736d	-0.066138126
169	0x3db647b8	0.08900398
170	0x3a9051be	0.0011010689
171	0xbe067c8d	-0.1313345
172	0x3d8cd0dd	0.06875775
173	0x3dd8bcd2	0.105828896
174	0x3dc1bfa9	0.094603844
175	0x3c54f02a	0.012996713
176	0x3d809183	0.06277754
177	0xbe496191	-0.19666125
178	0xbdfab5b4	-0.12241688
179	0xbd08da04	-0.03341104
180	0x3dc83721	0.0977614
181	0x3c9c3e15	0.019072572
182	0x3c1902bd	0.009339032
183	0xbdc21e31	-0.09478415
184	0xbcdb8d22	-0.026800696
185	0x3d25edc7	0.040509965
186	0xbd5bb81a	-0.05364237
187	0x3d4d9f80	0.05020094
188	0x3d86e9ed	0.065875866
189	0xbcffac04	-0.031209953
190	0x3d0516bd	0.032492388
191	0xbd81e3fd	-0.063423134
192	0x3deb2c5b	0.114830695
193	0xbc7b143b	-0.015324648
194	0x3d973b46	0.073843524
195	0x3f018c7c	0.5060499
196	0x3d61879a	0.05506096
197	0xbe210c8f	-0.15727447
198	0x402f213e	2.736404
199	0x3deaec4b	0.114708506
200	0xbd0e590d	-0.034752894
201	0x3d10f8ee	0.035393648
202	0xbf7e92c4	-0.99442697
203	0xbf20b447	-0.6277508
204	0x3e483e28	0.1955496
205	0x3d89caa5	0.067281045
206	0xbdba3917	-0.0909292
207	0xbf660343	-0.89848727
208	0xbf6454cb	-0.89191884
209	0x3df4a23b	0.119450055
210	0x3f699b92	0.91253006
211	0x3e0e6a3c	0.13907713
212	0x3e914195	0.28370348
213	0x3d81ac85	0.063317336
214	0x3cf3f1ab	0.029778322
215	0xbd3cb2b0	-0.046068847
216	0xbd5bd372	-0.053668447
217	0x3ffd4f53	1.9789833
218	0x3f51b599	0.8191772
219	0x3de4e2fb	0.111761056
220	0xbd22f986	-0.039788745
221	0x3e57dfb9	0.21081437
222	0xbd92c44e	-0.071663484
223	0x3dd35922	0.10319735
224	0x3d1c933e	0.03822636
225	0x3ddbcc6a	0.10732348
226	0xbd4b63a0	-0.049655557
227	0x3dea483a	0.114395574
228	0x3e05922d	0.13044043
229	0x3f3fe637	0.74960655
230	0xbd7e9453	-0.06215317
231	0x3f2dafb6	0.6784624
232	0xbf75dd14	-0.96040463
233	0xbd88f23d	-0.06686828
234	0x3dd4525a	0.1036727
235	0x3eb185bf	0.34672353
236	0x40088d74	2.1336336
237	0x3fd98ca2	1.6996043
238	0xbddbe182	-0.107363716
239	0x3d4fc008	0.050720245
240	0x3d4eaab1	0.050455753
241	0x3ec40a60	0.38289165
242	0x3e3897e7	0.18026696
243	0x401df2cd	2.4679444
244	0x4008514c	2.129962
245	0xbdd3c42a	-0.1034015
246	0xbe19d0fe	-0.1502113
247	0xbdbeb1a0	-0.09311223
248	0x3e80655f	0.2507734
249	0xbd7d5273	-0.061846208
250	0xbca74aff	-0.020421503
251	0xbf167e36	-0.5878633
252	0xbe3598b8	-0.17734039
253	0x3da2964e	0.079388246
254	0xbc80047f	-0.015627144
255	0x3b01e7e4	0.0019822055

bias f4 [64]
0	0xbdaed577	-0.08536809
1	0xbb95c446	-0.0045705168
2	0xbdb7ecd0	-0.08980715
3	0xbec5f5c9	-0.38664082
4	0x3c2ab91e	0.010420112
5	0x3d0adb4c	0.033900544
6	0xbdfa0a9c	-0.12209055
7	0xbe13f36e	-0.1444833
8	0x3f250b36	0.6447023
9	0xbe15322e	-0.14569923
10	0xbde04b33	-0.10951843
11	0x3d941ec7	0.07232433
12	0x3f1c853a	0.6114079
13	0xbd9ec365	-0.07752112
14	0xbd12d57e	-0.035848133
15	0xbd629f4b	-0.055327695
16	0xbdf2dac4	-0.118581325
17	0x3d843d8c	0.06457052
18	0xbda4fdef	-0.080562465
19	0x3e280aeb	0.16410415
20	0xbe7dc484	-0.24781996
21	0xbd2669ff	-0.04062843
22	0x3de5d383	0.11221983
23	0xbb2c90ff	-0.0026331542
24	0xbde94413	-0.11389937
25	0xbd322390	-0.043490946
26	0xbdce66b9	-0.100781865
27	0xbdb5b7f8	-0.0887298
28	0x3e447d6d	0.19188471
29	0xbcb04a20	-0.02151972
30	0xbe004237	-0.12525259
31	0xbea8d32f	-0.3297362
32	0x3f7e2148	0.99269533
33	0xbe0cd015	-0.13751252
34	0xbd26d377	-0.040729012
35	0xbe04581d	-0.12924238
36	0xbc6e4d23	-0.014544758
37	0xbd95b4a6	-0.073098466
38	0xbd06dfc5	-0.032928247
39	0x3d8e257c	0.06940743
40	0x3d9ad298	0.07559699
41	0xbe276de9	-0.16350521
42	0xbf042bce	-0.5162934
43	0xbf06557d	-0.52474195
44	0xbee802fb	-0.45314774
45	0xbe56401a	-0.2092289
46	0xbe17d916	-0.14828905
47	0x3de4678b	0.11152562
48	0xbd368250	-0.04455787
49	0x3b0c2b3c	0.0021388074
50	0x3ca83ebe	0.02053773
51	0xbf119916	-0.56874216
52	0xbc71e574	-0.014764179
53	0xbd851dc4	-0.06499818
54	0xbc3dc100	-0.011581659
55	0x3e63c637	0.22243582
56	0xbe16cf75	-0.14727576
57	0xbd96ff1e	-0.073728785
58	0x3b9eccc5	0.004846188
59	0x3cd27ff1	0.025695773
60	0x3d83532c	0.06412348
61	0x3d5bcc69	0.053661738
62	0xbda6dd9f	-0.081477396
63	0xbd81381d	-0.06309531

weight f4 [2, 64]
0	0x3ded8dbb	0.115992986
1	0x3e427fd8	0.18994081
2	0xbe2611b7	-0.16217695
3	0xc1002f12	-8.011492
4	0xbe0a535c	-0.13508362
5	0x3e3ca17f	0.18420981
6	0xbe7021e3	-0.23450427
7	0x3e05d944	0.13071162
8	0x400e383d	2.2221825
9	0x3e015f2d	0.12633963
10	0x3e3d0007	0.18457042
11	0xc0961715	-4.6903176
12	0x402cd4f7	2.7004983
13	0xbe095a25	-0.13413294
14	0xbdb04317	-0.08606546
15	0x3db5ae97	0.08871191
16	0x3d18c696	0.03729876
17	0x3d20f777	0.0392985
18	0x3b50c9aa	0.0031858482
19	0xbf57b651	-0.8426257
20	0xbedebf19	-0.4350517
21	0x3ceef06b	0.029167375
22	0x40918d5e	4.5485067
23	0x3d8836bc	0.06651065
24	0x3c8daebd	0.017295236
25	0xbe4e4b61	-0.20145942
26	0x3dc344b8	0.095345914
27	0x3b9d310d	0.004797107
28	0x40b6fe88	5.7185707
29	0xbdb92f77	-0.09042256
30	0xbced09b3	-0.028935289
31	0xc0f616e3	-7.690294
32	0x3fa81eb7	1.3134373
33	0x3e13ab8d	0.1442091
34	0x3de16b7b	0.110068284
35	0xbcbefbd8	-0.023313448
36	0xbd96a096	-0.07354848
37	0x3b3ae047	0.0028515027
38	0x3e19b0f5	0.1500891
39	0xbd399698	-0.045309633
40	0xc01ded55	-2.4676106
41	0x3d6a2062	0.05715979
42	0xbb95b7c5	-0.004569026
43	0xc103cb7c	-8.237179
44	0xc0dc8a41	-6.8918767
45	0x3dd21fd9	0.10259981
46	0xbdfd3b03	-0.12364771
47	0xbd1e64de	-0.038670413
48	0x3bbaa357	0.005695741
49	0xbdcd4a58	-0.100239456
50	0xbc512449	-0.012764999
51	0xc0bef597	-5.967479
52	0x3cc2b751	0.023769053
53	0xbd7851fc	-0.06062506
54	0xbfb0712f	-1.3784541
55	0x3f1897b6	0.5960649
56	0xbf047824	-0.5174582
57	0x3b80cddd	0.003930791
58	0xbe1dd9cd	-0.15415116
59	0xbc16245d	-0.009163943
60	0x3d05f884	0.032707706
61	0x3da058de	0.0782945
62	0xbfafc22e	-1.3731134
63	0x3c1bda16	0.009512445
64	0x3eaba37e	0.33523172
65	0x3d9efdfe	0.07763289
66	0x3d7baa3c	0.061441645
67	0xbfb7553f	-1.432289
68	0xbe164dc6	-0.14678106
69	0x3e15309e	0.14569327
70	0x3f2d7777	0.67760414
71	0xbdd72f2a	-0.10507043
72	0x3f885842	1.0651934
73	0x3c88339d	0.016626174
74	0x3cf411b3	0.029793596
75	0xc0c3a945	-6.114413
76	0x3f8ff818	1.1247587
77	0xbd0cccf5	-0.03437515
78	0x3e0460b5	0.12927516
79	0x3e097fa5	0.13427599
80	0xbd46fc48	-0.048580438
81	0x3e14f475	0.14546378
82	0xbe89c2d5	-0.26906458
83	0xc08b2a85	-4.3489404
84	0xbdbcbb47	-0.09215408
85	0x3d42fff8	0.047607392
86	0x3d23be37	0.039976325
87	0x3c9c2b55	0.019063631
88	0x3ced732b	0.02898558
89	0x3e13527d	0.14386936
90	0xbbfc2b24	-0.0076955725
91	0x3d986e4e	0.07442914
92	0xbf81882e	-1.0119684
93	0x3dc29bf8	0.09502405
94	0x3d3d7aaf	0.04625958
95	0xbfbd1db7	-1.4774693
96	0x4044ceca	3.0751214
97	0x3df18c64	0.117943555
98	0xbc4e90e9	-0.012607791
99	0x3c407aa9	0.011747994
100	0x3d8cdc94	0.068780094
101	0xbd80c9f4	-0.062885195
102	0x3cca3161	0.024681749
103	0x3cbeeb6f	0.023305623
104	0xc0db27d4	-6.848612
105	0x3f806ae7	1.0032624
106	0x4083ebee	4.12255
107	0xbfe80b92	-1.8128531
108	0xbfd91131	-1.6958371
109	0x3d5f0c71	0.054455224
110	0x3de3aa7a	0.111165
111	0x3dafe2ff	0.08588218
112	0x3d4bde48	0.04977253
113	0xbda4b92f	-0.080431335
114	0x3cb20130	0.021729082
115	0xc0204556	-2.504232
116	0xbc3a753f	-0.011380493
117	0x3d91939e	0.07108234
118	0x4009d724	2.1537561
119	0x3f072079	0.52783924
120	0xbf9df90d	-1.2341629
121	0xbe3907a0	-0.18069315
122	0xbda0c706	-0.07850461
123	0xbca1eb37	-0.01976548
124	0x3cb03508	0.021509662
125	0xbbf25914	-0.007395873
126	0x402aabd6	2.666738
127	0xbb6d1c73	-0.0036180287

bias f4 [2]
0	0x402c301f	2.690437
1	0x3f45fcf8	0.77339125
