强化学习TD3_py/run/critic_2.pt (torch, 23321 bytes, 7 tensors)

weight f4 [64, 7]
000000 4a ea c9 bf 13 8f f9 bf 85 92 49 be 34 20 ba be
       -1.5774624 -1.9496788 -0.19684799 -0.36352694
000010 33 06 53 be c0 a0 fd be 48 db d8 be 1e be 95 bf
       -0.20607834 -0.49536705 -0.42354798 -1.1698644
000020 87 4f 98 bf 39 0d 94 be c7 70 6a be f9 4a a2 be
       -1.189927 -0.28916338 -0.22894584 -0.31697825
000030 8a 64 88 be 0b a4 8d be ca bd 4e bd ce 4c fd bc
       -0.26639205 -0.27664217 -0.050473966 -0.030920412
000040 78 a8 26 3d 14 31 2e bc e9 b5 c7 bc ae c4 6c bd
       0.040688008 -0.010631818 -0.024378734 -0.057804756
000050 82 04 72 be c6 c6 b6 be 0f 87 3f 3f 2c 7d 8c 3e
       -0.23634532 -0.35698527 0.7481546 0.2743925
000060 2e f3 94 3d 7e e5 56 3e 5a b2 42 3e 48 0b 23 3e
       0.07272945 0.20985982 0.19013348 0.15922272
000070 a7 34 94 bd 57 2a 48 40 bb a5 54 3e 6c 87 87 3e
       -0.07236605 3.1275842 0.20766346 0.26470506
000080 01 62 17 3e 0d 24 81 3d b6 ee dd 3c c1 31 a7 bd
       0.1478348 0.06305704 0.027091365 -0.08163787
000090 61 ae 0d be e2 14 23 3c 5d 33 68 be 1c 6b 79 be
       -0.13836052 0.009953709 -0.22675844 -0.24357265
0000a0 7d 3e 15 3d f3 98 33 bd 3a 0e 44 40 4b e0 33 40
       0.036436547 -0.043847036 3.0633683 2.8105648
0000b0 9e 02 05 3f 6c 3a 19 3f d0 8a de 3e e2 43 88 3e
       0.5195712 0.5985477 0.4346528 0.2661429
0000c0 dc 21 bd 3e 43 41 b8 3d eb 94 bb 3f b0 38 72 3e
       0.36939895 0.08996823 1.4654821 0.23654437
0000d0 df 55 f8 3d a8 3b 55 3c 35 ac 2d bb ba 4d 4d 3e
       0.121257536 0.013014711 -0.0026500348 0.20049182
0000e0 9b 50 40 bf 42 ff 36 40 53 29 5c 3d df c3 f8 3d
       -0.75122994 2.8593297 0.053750347 0.121467344
0000f0 e3 04 dd 3d 6c ba 35 3e 77 56 ac bd 89 30 2f be
       0.10791948 0.17746896 -0.08414929 -0.17108358
000100 77 8f ba 3d 65 84 9c be 4b b8 47 be 0a f1 34 3c
       0.09109395 -0.3056976 -0.19503896 0.011043796
000110 26 bf 51 3d 2f 6c c6 bc 77 cb c6 3f a9 bc 92 bf
       0.051207684 -0.024221508 1.5530843 -1.1463825
000120 6e 8a 96 bd 02 28 f9 3d e2 06 60 bd d0 74 04 3d
       -0.07350622 0.12165834 -0.054694064 0.032337964
000130 82 cc e5 3c b8 5b f0 3f 28 d5 2b bf 3f c4 35 3e
       0.028051618 1.877799 -0.67122126 0.17750643
000140 84 c1 9f bd 1c 96 08 bd c0 49 c8 3d 9f e7 33 3d
       -0.07800582 -0.03334628 0.09779692 0.043922063
000150 24 04 39 bf 1d 0b 45 40 74 2c c9 bd 79 a0 f6 3c
       -0.72271943 3.0788033 -0.09822932 0.030105816
000160 a4 34 be bd 2d f7 a8 be 14 3b 2e be 81 3b 6c bf
       -0.09287384 -0.3300108 -0.17014724 -0.92278296
000170 4e 71 49 bf f8 6d 6e be 3e c9 2a be e8 70 af be
       -0.78688514 -0.23284137 -0.1667833 -0.34265828
000180 a0 ae 6a be 66 c1 af be b7 94 7c bf 80 cd 43 3f
       -0.22918177 -0.3432724 -0.9866442 0.76485443
000190 57 b5 79 bd 1e c4 16 be 63 b6 a1 bd f7 bc 0a 3d
       -0.060963955 -0.1472325 -0.07896116 0.033871617
0001a0 00 1e 44 be d3 e2 6e 40 f4 83 3b 3e 76 a5 ec 3e
       -0.19152069 3.7325943 0.18312055 0.46219987
0001b0 04 1a c2 3e e2 00 b2 3e 9e 34 db 3e e2 12 d5 3e
       0.37910473 0.347663 0.4281358 0.4161597
0001c0 9e b5 ca 3f b5 ef de 3d 3f 52 72 3e 5d dd 01 3e
       1.5836675 0.10885564 0.23664187 0.126821
0001d0 e3 4b b4 3d 5f 23 10 3e a1 cc ed 3d 0f 6f 08 40
       0.08803537 0.14075993 0.116112955 2.1317785
0001e0 4c 10 9b 3f 2d e1 d6 bc a8 b7 71 3e 89 7f 44 3d
       1.2114348 -0.026230419 0.23605216 0.04797319
0001f0 d7 71 fe 3d 3d a4 18 3d 79 e7 42 3f d3 7d 87 bf
       0.12424057 0.037266005 0.7613445 -1.0585274
000200 e8 6d 9a bd 08 2f ee bd b3 0e 78 3d 5a 46 72 be
       -0.07540494 -0.11630064 0.060560893 -0.2365965
000210 b7 3d 0b be db e1 4a bf bf fa d2 bf 63 e5 8d be
       -0.13597761 -0.7925088 -1.6482772 -0.2771407
000220 ad d2 21 be 62 b6 8b be f5 41 b5 be 19 a6 d6 be
       -0.15803023 -0.27287585 -0.35401884 -0.41923597
000230 13 60 a7 be 0c e8 7e 3f eb b7 44 3e f0 92 6f 3d
       -0.32690486 0.99572825 0.19210784 0.05848974
000240 4a ea 70 3a ba 73 9f 3d a8 7f 34 3d 7b 69 76 3e
       0.0009190185 0.07785745 0.044067055 0.24063675
000250 b4 d3 53 3e 5d 2e 61 bd 65 ef 4c be 9d 4e e3 3c
       0.20686227 -0.054975856 -0.20013197 0.027747447
000260 8b 7e 7a bd 21 2e 67 be 85 b8 13 3f 2e f7 2f bf
       -0.061155837 -0.2257619 0.5770343 -0.6873654
000270 59 08 92 bd 55 74 49 be b1 f5 40 3c c9 78 4e 3c
       -0.071304984 -0.19673283 0.011777327 0.01260204
000280 cf b0 11 be 1e 58 89 bf 43 07 6a 3e 89 14 96 be
       -0.14227603 -1.0730016 0.22854333 -0.29312542
000290 55 73 73 be c4 83 5b 3c 80 39 2f bd 47 70 e5 bd
       -0.23774464 0.013398115 -0.042779446 -0.11203056
0002a0 6f 96 b3 bf aa a3 92 3f 37 4a 1b be b1 8c 28 be
       -1.4030284 1.1456196 -0.1516503 -0.1645992
0002b0 6f ea e9 bc ae 63 d1 bd 8d 7c 16 3e 48 84 85 bd
       -0.02855417 -0.102240905 0.1469595 -0.06519371
0002c0 9a 6d 5c 3d 44 a2 3f bd 42 1c 32 bb e8 b6 fa bd
       0.05381546 -0.046785608 -0.0027177488 -0.12241918
0002d0 74 a2 49 bc b5 ed 1c be 62 97 87 3f 30 ef 48 3f
       -0.012306798 -0.15325053 1.0593073 0.7848997
0002e0 e6 6f 6e 3e 82 32 27 3e e4 e6 ae 3e ee 0d 96 3e
       0.23284873 0.16327861 0.3416053 0.29307503
0002f0 28 a9 71 3e 35 a3 29 bc 36 c4 74 bd 8c d2 ea bd
       0.23599684 -0.010353853 -0.059757434 -0.1146594
000300 d0 f0 f6 bd 68 a4 b9 bd 02 a6 c7 3d e6 4f 18 be
       -0.1205765 -0.09064561 0.0974846 -0.14874229
000310 12 15 92 bf 26 66 7a 3f 23 61 c7 bd fa 2c c1 bb
       -1.141268 0.97812116 -0.09735324 -0.005895254
000320 73 a7 e3 3d eb af 69 bd 47 b1 93 bd 3b 94 5b bf
       0.11115923 -0.057052534 -0.07211547 -0.85773057
000330 e7 bd d5 3d 7a fe f6 bc 4a 75 39 be 27 be d3 bd
       0.104366116 -0.03015064 -0.18111148 -0.10339003
000340 56 9a 65 be 05 40 d8 bd b4 84 01 c0 d3 af 38 40
       -0.22422156 -0.10559086 -2.0237246 2.8857315
000350 e8 d0 a3 bc 0e aa 2b be 2c e6 e6 bc 72 8c 16 be
       -0.019997075 -0.1676409 -0.028185926 -0.14702013
000360 88 14 08 3d 30 18 c4 3f 8b b6 bc 3e 3a b8 19 3e
       0.033222705 1.5319881 0.3685802 0.15011683
000370 33 53 83 3d 2f e6 c2 3d a9 bf d7 3e 9e ce 6d 3e
       0.06412353 0.0951656 0.42138413 0.2322335
000380 9b 13 01 3f 21 55 24 bf b9 03 2b 3d 55 ee 5c be
       0.5042054 -0.64192396 0.041751597 -0.21575291
000390 fc 41 45 bd 27 88 35 be 57 eb 0f be 1d 25 b2 3f
       -0.04815863 -0.17727719 -0.14054619 1.3917576
0003a0 15 45 66 bf f6 46 88 3d 9e b4 fd 3d 6f 69 0a 3e
       -0.8994916 0.0665416 0.123879656 0.13516782
0003b0 6f 8f 83 bd 69 0c 74 bd 67 ca 51 3b 25 c6 9e 3d
       -0.06423842 -0.059582148 0.003201151 0.07752637
0003c0 42 e0 94 3c ca 59 c5 bd bf 3f 0b be 24 c3 41 be
       0.01817334 -0.096362665 -0.13598536 -0.18922096
0003d0 28 b5 db bd 0c ca 8f 3f 21 4d c9 bc 0c 1e 60 3e
       -0.10727912 1.1233535 -0.02457291 0.21886462
0003e0 d2 10 36 3e fc 4a b5 3d 1a 43 af 3d db ac 5e bb
       0.17779854 0.08852193 0.085577205 -0.0033977542
0003f0 7e f7 27 bf 1f 67 59 3f d9 44 dd bc 68 cd db 3d
       -0.6561202 0.84922975 -0.027010368 0.107325375

bias f4 [64]
000000 e2 b0 94 be 3b 7c 4b be 75 df 41 3d 60 d5 8d 3e
       -0.290412 -0.19871609 0.047332246 0.27701855
000010 bc c5 87 3e 5f 91 af 3d 39 77 0b 3f 62 bc 45 3e
       0.26518047 0.08572649 0.54478794 0.19310144
000020 26 be 13 3e db a8 a1 3d d1 94 05 3e 66 4f 1e 3e
       0.14428005 0.07893535 0.1304505 0.15459976
000030 d4 51 a4 bc d9 cf fe bd 83 2c a3 3c d2 09 06 3f
       -0.02005855 -0.124419875 0.019918686 0.52358735
000040 f2 c0 7a 3e f7 a2 37 3e 41 4a 45 bc 4b 96 37 be
       0.24487665 0.1793326 -0.012041629 -0.17928426
000050 5a 5b 22 3e fc b3 db bc c6 7a 1f 3d 90 6a 63 bd
       0.1585516 -0.026819222 0.038935445 -0.055521548
000060 d0 28 81 3d 4a cb 26 3d cd 95 91 3e 63 61 76 3d
       0.063066125 0.040721215 0.284346 0.06015147
000070 ad fa 9c 3d 8f 2f 9f 3b 6e 19 9e 3d e9 a8 4c 3e
       0.07665 0.0048579643 0.07719694 0.19986309
000080 c0 ad 64 3c 5e e1 b9 3d cd cc cc 3d 60 03 dc 3d
       0.013957441 0.090761885 0.1 0.10742831
000090 06 67 0f bd 91 f2 c6 bd 15 72 d1 3e b7 ae b5 3d
       -0.03501036 -0.097142346 0.4090735 0.08871215
0000a0 c1 76 03 3e cb fb 68 bb 72 62 48 3e 86 1d 80 3e
       0.1283827 -0.003555047 0.19568804 0.25022525
0000b0 94 04 31 bc 9a ba dc bc 31 b1 ec 3b 29 9e 1e 3d
       -0.010804314 -0.026944447 0.0072232713 0.038725052
0000c0 cd cc cc 3d 69 46 78 3e a6 9a 84 bd f0 85 06 3b
       0.1 0.2424561 -0.06474809 0.002052661
0000d0 66 65 54 3d b2 23 54 3e de 77 5b 3e 25 7d a0 3d
       0.051854514 0.20716742 0.21432444 0.078363694
0000e0 ed 37 4a 3b 98 8f 84 3e 3e 08 80 3d e4 8a aa 3d
       0.0030856088 0.25890803 0.06251572 0.083272725
0000f0 64 17 05 3e e5 69 c2 3c cd cc cc 3d ce 43 8d 3d
       0.12997204 0.023732135 0.1 0.06897698

weight f4 [64, 2]
000000 d2 36 db bb b9 0c 26 3d 40 4e 90 bc ff c8 e4 3b
       -0.0066898847 0.040539477 -0.017615438 0.0069819684
000010 9a 6e c4 3a 03 af e0 3d 41 98 92 3d db ae 83 be
       0.0014986575 0.10970881 0.071579464 -0.25719342
000020 d9 1d a5 bc 19 2b 34 bc 84 f8 7b 3d a5 ed 66 3d
       -0.020155834 -0.010996603 0.0615163 0.05637898
000030 53 25 b6 3c e6 8b e2 bc 58 bb 75 bc 73 35 0b be
       0.022234594 -0.0276546 -0.0149982795 -0.13594608
000040 ac b4 6a bc e9 cd b1 3a 39 19 8a 3c b6 36 0d be
       -0.014325302 0.0013565394 0.01685773 -0.13790402
000050 68 ab 4b 3b 80 00 30 3b f1 59 59 3b c0 b0 cf bc
       0.0031077508 0.0026855767 0.0033165182 -0.025352836
000060 3b 2f f9 bd 38 fb 12 3d 60 a7 8f bb ab 10 39 bc
       -0.121672116 0.035884112 -0.0043839663 -0.011295478
000070 10 fd 0d 3b 2b f1 a5 3c 81 e2 b3 3c 10 01 dc 3c
       0.002166573 0.0202566 0.021958591 0.026855975
000080 dd ec 9a 3c d3 41 88 3c 8b bc 25 3d 17 b3 00 3d
       0.018911773 0.01663295 0.04046301 0.031420793
000090 74 58 94 bc a5 dc b8 bc b0 dc 83 bc 4d 6c c4 bc
       -0.018108584 -0.022566149 -0.016096443 -0.023977423
0000a0 ab 9b 56 be 17 6b 67 3e 5c 11 9a be d8 3f 77 3e
       -0.2095782 0.22599445 -0.3009137 0.24145448
0000b0 da fb 09 bd 1e da 85 bd 20 2e ee 3c 5c cf b5 3c
       -0.03368745 -0.06535743 0.029074728 0.022193603
0000c0 ec 69 21 3c d2 41 7c 3c 23 d6 a8 3d ca 11 e3 bd
       0.009851914 0.015396552 0.08243968 -0.11087377
0000d0 70 4a 01 3e 07 fb 91 be bd 9e 6b 3d 88 7a fc bd
       0.12626052 -0.2851183 0.05752443 -0.123280585
0000e0 c2 d2 da 3b 56 b0 e2 bc fc d6 41 bb 4c 50 8a 3a
       0.0066779563 -0.027671974 -0.0029577604 0.0010552495
0000f0 0c 13 b5 bc 3c f0 d9 3a 16 f8 c4 bb 61 d0 ad 3b
       -0.022103809 0.0016627382 -0.0060110195 0.0053043817
000100 04 c0 04 3d fc fa 15 bd 9a b3 27 3d 5f 9a f5 3d
       0.032409683 -0.03661631 0.040942766 0.119923346
000110 c9 93 1b be ad 52 b5 bd c4 05 51 bc 73 bf 66 bd
       -0.15193094 -0.0885366 -0.012757722 -0.056334924
000120 e6 f2 06 bb 65 3b e0 ba e8 86 8b bb 5b 55 39 3c
       -0.0020591556 -0.0017107545 -0.0042580254 0.011311854
000130 c9 4d 4c 3b 6b 7d 9f bc 2d 61 5c bd 47 3a eb 3c
       0.0031174293 -0.019468984 -0.05380361 0.028714312
000140 8c 2d 04 bd d7 f9 cb 3c f7 60 1e bb 42 d5 09 3d
       -0.03227 0.024899406 -0.0024166682 0.033650644
000150 65 78 49 bc 99 99 83 bd 33 5c 7c 3b 80 fc 3e 3b
       -0.012296771 -0.06425781 0.0038507103 0.00291422
000160 e0 71 29 3c 0c 45 13 3c 4a f3 71 ba be fa 3c bd
       0.010342091 0.00898863 -0.00092296733 -0.046137564
000170 01 ae b1 be 5c da f1 3b 00 01 6a be 34 a5 db 3c
       -0.34703067 0.007380767 -0.22851944 0.026812173
000180 6c 67 04 bd 7e 21 a4 bb 50 8d 15 3c bd f5 00 bd
       -0.032325193 -0.0050088754 0.00912793 -0.031484354
000190 7c 6c 25 bf 85 be 4b 3b 52 9a 91 bd c6 f3 4e 3e
       -0.6461866 0.00310889 -0.071095124 0.2021018
0001a0 8a db 70 bd af f5 c7 bd 94 57 1e 3c f0 f0 6f 3d
       -0.05880312 -0.09763657 0.009664435 0.058579385
0001b0 27 b2 f7 bb b5 d2 75 bb 54 b5 36 bd 95 4f 82 bd
       -0.007559079 -0.0037509624 -0.04460652 -0.06362835
0001c0 78 3d 47 3d 85 8e ad bc 33 c5 c5 3d 93 f1 3a 3e
       0.048642606 -0.021186123 0.096567534 0.18256216
0001d0 b9 52 8e ba 84 cb 84 3b 69 d1 b4 3d ba 5e b8 bd
       -0.0010858394 0.0040525813 0.08829004 -0.09002443
0001e0 53 96 9c bb 55 61 6e bc 40 b3 13 be 76 fd 5d bd
       -0.004778662 -0.014549573 -0.14423847 -0.054196797
0001f0 46 6e a7 3c 68 d6 72 3d a2 e0 28 3e 56 49 3a bd
       0.020438325 0.059286505 0.1649194 -0.045480095

bias f4 [64]
000000 e2 b0 94 be 3b 7c 4b be 75 df 41 3d 60 d5 8d 3e
       -0.290412 -0.19871609 0.047332246 0.27701855
000010 bc c5 87 3e 5f 91 af 3d 39 77 0b 3f 62 bc 45 3e
       0.26518047 0.08572649 0.54478794 0.19310144
000020 26 be 13 3e db a8 a1 3d d1 94 05 3e 66 4f 1e 3e
       0.14428005 0.07893535 0.1304505 0.15459976
000030 d4 51 a4 bc d9 cf fe bd 83 2c a3 3c d2 09 06 3f
       -0.02005855 -0.124419875 0.019918686 0.52358735
000040 f2 c0 7a 3e f7 a2 37 3e 41 4a 45 bc 4b 96 37 be
       0.24487665 0.1793326 -0.012041629 -0.17928426
000050 5a 5b 22 3e fc b3 db bc c6 7a 1f 3d 90 6a 63 bd
       0.1585516 -0.026819222 0.038935445 -0.055521548
000060 d0 28 81 3d 4a cb 26 3d cd 95 91 3e 63 61 76 3d
       0.063066125 0.040721215 0.284346 0.06015147
000070 ad fa 9c 3d 8f 2f 9f 3b 6e 19 9e 3d e9 a8 4c 3e
       0.07665 0.0048579643 0.07719694 0.19986309
000080 c0 ad 64 3c 5e e1 b9 3d cd cc cc 3d 60 03 dc 3d
       0.013957441 0.090761885 0.1 0.10742831
000090 06 67 0f bd 91 f2 c6 bd 15 72 d1 3e b7 ae b5 3d
       -0.03501036 -0.097142346 0.4090735 0.08871215
0000a0 c1 76 03 3e cb fb 68 bb 72 62 48 3e 86 1d 80 3e
       0.1283827 -0.003555047 0.19568804 0.25022525
0000b0 94 04 31 bc 9a ba dc bc 31 b1 ec 3b 29 9e 1e 3d
       -0.010804314 -0.026944447 0.0072232713 0.038725052
0000c0 cd cc cc 3d 69 46 78 3e a6 9a 84 bd f0 85 06 3b
       0.1 0.2424561 -0.06474809 0.002052661
0000d0 66 65 54 3d b2 23 54 3e de 77 5b 3e 25 7d a0 3d
       0.051854514 0.20716742 0.21432444 0.078363694
0000e0 ed 37 4a 3b 98 8f 84 3e 3e 08 80 3d e4 8a aa 3d
       0.0030856088 0.25890803 0.06251572 0.083272725
0000f0 64 17 05 3e e5 69 c2 3c cd cc cc 3d ce 43 8d 3d
       0.12997204 0.023732135 0.1 0.06897698

weight f4 [64, 64]
000000 10 b2 eb 3e a1 ef 2f 3f a4 96 09 3e 75 a6 b3 bf
       0.46034288 0.6872502 0.13436371 -1.4035174
000010 73 9a 50 3d 16 f5 30 3c f7 41 a2 3e df d6 f0 bf
       0.050928544 0.010800621 0.31690952 -1.8815573
000020 7b de 9d bf 4e ad 56 3e 51 3d e1 be a5 f4 0f bf
       -1.2333521 0.20964548 -0.43992093 -0.5623267
000030 8d 35 ae be db 60 1e 3f 35 7d a7 3e a4 b0 6e bf
       -0.3402523 0.6186654 0.32712713 -0.9323828
000040 cc 78 cd bf b5 8e 9c bf b8 83 98 be 47 c2 04 3f
       -1.6052489 -1.2231051 -0.29787993 0.51858944
000050 ea 15 5a bf 40 a7 e4 ba 1d 8f f2 3d 5d 61 b3 3d
       -0.8518969 -0.0017444864 0.11843703 0.08758805
000060 f5 b8 c9 be 81 15 d0 3b e3 8d 2c bf 94 93 0a bd
       -0.39398924 0.0063502197 -0.67404 -0.033832148
000070 ad b8 81 3d e3 a0 85 3f 63 60 e6 3d 58 72 ab bf
       0.06334052 1.0439724 0.11248853 -1.339427
000080 ce f8 0f 3f 82 a3 9b bf 17 4f ab 3d aa a4 15 ba
       0.5623902 -1.2159274 0.083646946 -0.0005708436
000090 9f 03 0d be 47 ba 7b 3f 46 85 c0 3e f0 0b ed 3d
       -0.13770913 0.9833111 0.3760168 0.115745425
0000a0 df 7f 2b be 52 dc b8 3d 0f 63 77 bf 98 32 b4 bf
       -0.16747998 0.09026398 -0.96635526 -1.407794
0000b0 f6 20 78 be 1d d3 30 3e 0f a4 72 3d a5 4f 8d be
       -0.24231324 0.17268033 0.05923849 -0.27599826
0000c0 26 e0 22 3d f9 33 bb bf 6b e8 6f bd 9a 38 d2 bf
       0.039764546 -1.4625236 -0.05857126 -1.6423523
0000d0 ae 15 5b bd fb df b7 be a1 c6 9f bf d9 8b 48 be
       -0.053487472 -0.3591307 -1.2482492 -0.19584598
0000e0 9a 59 03 bc 25 9d 05 c0 55 34 36 bf 75 bf 25 3d
       -0.008016968 -2.0877163 -0.711736 0.04046579
0000f0 5b 88 76 bf 59 28 b1 be f5 5a 77 3d 1b ed 0e be
       -0.9630181 -0.34601095 0.060389478 -0.13957636
000100 36 f0 74 3f 9d bf a5 3f b6 46 45 3d f1 bd 6f bf
       0.9567903 1.2949101 0.04816314 -0.936492
000110 30 9d d3 be 4a 6f 07 3d d3 98 b7 3f 9e f0 94 bf
       -0.41330862 0.033065118 1.4343513 -1.163593
000120 00 7e de bd 62 99 92 3d 6a 36 2f be 51 2b 62 3e
       -0.10863876 0.07158162 -0.17110601 0.22086836
000130 e1 f8 ad 3f f9 68 8f 3f 6f 0c 94 c0 17 dd b0 bf
       1.3591577 1.120391 -4.626518 -1.3817471
000140 ae ca bc bf 57 49 98 bf 89 07 3d 3f dc 3e aa 3f
       -1.4749353 -1.1897382 0.7383962 1.3300433
000150 a5 1a 84 bf 8c a0 0f bd 7b a0 4a 3d 5e 91 91 c0
       -1.0320631 -0.03506522 0.049469452 -4.548995
000160 33 f8 0b c1 3f 6a 03 3e 5d 34 15 c0 10 0c 00 3e
       -8.7480955 0.12833498 -2.331321 0.12504601
000170 03 0d 11 c0 45 11 8b 40 14 8d 11 40 86 2c 61 c0
       -2.2664192 4.345858 2.2742357 -3.5183425
000180 e0 b2 91 bc fa 5b f2 3e cb c3 c2 bd d3 8d 21 3f
       -0.01778549 0.47335798 -0.09510001 0.6310703
000190 d7 1a 25 c0 f0 f2 e3 3f 0c 1b 34 3f 28 de c9 bc
       -2.5797632 1.7808514 0.7035377 -0.024642065
0001a0 b8 91 c7 3e 0c 3e 6f c0 16 92 03 c0 f8 af 2d bf
       0.38978362 -3.738162 -2.0557914 -0.6784663
0001b0 5f 71 36 3f 3c 35 bc bc 2d dd 66 3e ec 96 df be
       0.7126674 -0.022974603 0.2254531 -0.43669832
0001c0 03 0c ab 3d 3f 74 77 3d 59 e6 1d bf 67 d4 98 3f
       0.083519004 0.060413595 -0.6167961 1.193982
0001d0 68 34 99 bd 73 73 4d bf 86 f2 64 c0 0b ae 06 be
       -0.07480699 -0.80254287 -3.5773025 -0.1315233
0001e0 98 2a 62 3e e6 4b 9f bf af 67 28 c0 5e 23 da bd
       0.2208656 -1.2445037 -2.6313283 -0.10651277
0001f0 bc 10 a5 bf 50 0a 4f 3d a4 db 32 3e da 28 e6 3d
       -1.2895732 0.050546944 0.17466599 0.112382606
000200 be fc c8 3e 62 db b4 3c f8 dd 9e 3c 7c 55 87 be
       0.39255327 0.022077266 0.019392952 -0.26432407
000210 19 39 d5 3d 08 ae b5 3d 1d 50 6a 3f 44 1b 7b bf
       0.10411281 0.088710845 0.91528493 -0.9808848
000220 ba a2 10 bf 8d 5a 2e 3e 6e 11 36 bf 13 a6 1c bf
       -0.564983 0.1702673 -0.71120346 -0.6119091
000230 a7 76 8d 3f 1d dd 48 3f b0 52 94 bd a8 ff 39 3f
       1.1051835 0.7846239 -0.07242334 0.72655725
000240 58 e3 8c bf 73 86 fa be cf e7 30 bf 8c a7 3c 3f
       -1.100688 -0.48930702 -0.6910371 0.73693156
000250 bc 1d a0 be 8a 32 39 bd 54 bc d7 39 ca 38 9f be
       -0.31272686 -0.045214213 0.0004114831 -0.31098014
000260 12 80 0e 3e e0 9f 38 3e 53 ee 55 bf 9f 1f 04 be
       0.13916042 0.18029737 -0.8356678 -0.12902687
000270 3f 2a 07 3e 34 07 8e 3f 01 bc b1 3f 37 25 0e 3e
       0.1319971 1.1095948 1.3885499 0.13881384
000280 41 f9 6f 3e af b5 80 bf ef ea 07 3e 53 89 82 be
       0.23434927 -1.0055445 0.13273214 -0.25495395
000290 fd d1 8f be 9d 03 41 3f 7d d3 61 3f 4f bf d7 bd
       -0.28089896 0.7539614 0.8821333 -0.10534536
0002a0 10 44 c3 bd 55 ba 15 be 58 4d 21 3d 48 e1 30 bf
       -0.09534466 -0.14621861 0.0393804 -0.6909375
0002b0 77 cd 19 bf 15 4e a3 3d 78 72 03 3e 8b 54 84 3e
       -0.6007914 0.07973877 0.12836635 0.2584575
0002c0 ff 96 6b be f1 46 80 bf 52 7e 04 3d 43 4e b4 bf
       -0.23006819 -1.002165 0.03234703 -1.4086384
0002d0 4f f2 82 be 63 44 71 be bc 36 46 bf 0d 1d 1a be
       -0.25575492 -0.23561244 -0.7742727 -0.15050144
0002e0 b1 a4 83 bd 53 f5 41 bf 65 e9 87 bf 29 f3 a8 3d
       -0.06427897 -0.7576496 -1.0618101 0.08249504
0002f0 ce 49 b7 be 45 5d 19 bf e0 21 d6 bd 38 7a 37 bd
       -0.35798496 -0.59907943 -0.1045568 -0.04479429
000300 de e8 f4 3d 2d 5e b5 bd bd 6a 59 bd 37 de 73 bf
       0.119584784 -0.08855853 -0.05308031 -0.9526095
000310 5e f2 26 3e 86 6d de bb 09 3a 74 3d ef db 43 bf
       0.16303393 -0.0067879586 0.05962566 -0.7650747
000320 57 e2 1e bf 5e 6e f4 3c 42 84 ae c0 b1 74 9e bf
       -0.6206412 0.029837783 -5.4536448 -1.2379361
000330 ac bb 3c 3d cc 64 aa 3e 42 a8 1a c0 e6 11 a9 bd
       0.046077415 0.33280027 -2.4165196 -0.08255367
000340 cd 05 42 bf 0c 63 67 bf 00 0b 0f c0 b0 ff 6c 3e
       -0.757901 -0.9038551 -2.2350464 0.23144412
000350 04 bc 80 bf 38 f7 d2 3c 43 a3 33 3e d8 9c ff bf
       -1.0057378 0.025752649 0.17542748 -1.996974
000360 93 af e5 bf 02 8b 2b be 26 09 99 bd 3d 9f aa 3d
       -1.7944206 -0.16752246 -0.07472448 0.083311535
000370 db ff c7 bf 86 0b df c0 2b bd 3c be a9 89 0c bf
       -1.5624956 -6.9701567 -0.18431537 -0.5489755
000380 b9 b2 7b c0 9d ec 65 bf e5 10 5f 3d 4c f2 0a be
       -3.9327834 -0.8981417 0.05445947 -0.13568991
000390 31 0b a4 bf dd 7b 12 bd 43 8a 56 3b cf 27 47 be
       -1.2815915 -0.035762656 0.003273622 -0.1944878
0003a0 7e f0 13 3c fd b0 ee bf f1 00 ab be 5f 91 bc be
       0.009029506 -1.8647763 -0.33399156 -0.3682966
0003b0 c9 a9 14 c0 d2 1b 03 3e b9 2f 03 3e 0e 17 3b 3e
       -2.3228629 0.12803581 0.12811173 0.18270513
0003c0 1b b2 16 be 58 5c a9 bf 9f ed 6a be a0 3d 00 c0
       -0.1471638 -1.3231306 -0.22942208 -2.0037613
0003d0 ec b9 dd 3b f6 d2 d3 be 15 95 1f bf 5d 81 20 be
       0.0067665484 -0.41371888 -0.62336856 -0.15674348
0003e0 76 12 7a bd 70 4f 81 bf 6f ba 83 c0 b7 eb 1d 3d
       -0.061052762 -1.0102367 -4.116508 0.038554873
0003f0 33 4c 8b bf a8 6e b1 c0 92 f3 7b 3d b6 a3 5f 3b
       -1.0882629 -5.544758 0.061511584 0.003412468

bias f4 [64]
000000 be 33 3f 3d ef 35 a0 3e 4f 4f 50 bd a4 b2 a2 3e
       0.046680205 0.31291148 -0.050856885 0.31776917
000010 60 91 e8 bd 46 c4 a2 bc 60 d2 69 bf dc 33 22 be
       -0.11355853 -0.019868981 -0.9133663 -0.15840095
000020 aa f0 80 bd 76 14 db 3e bb 94 2e 3d 95 11 d1 3e
       -0.06295903 0.42789048 0.04262231 0.40833727
000030 c2 cd ae 3e 45 65 b7 3e 00 f9 d5 3b 8d a8 0c ba
       0.34141356 0.3581945 0.0065299273 -0.0005365692
000040 9b e7 92 3e 2a 15 87 bd e7 65 7f 3c f7 91 0f be
       0.28692326 -0.065958336 0.01558826 -0.14020525
000050 0f 6c 8b be e4 79 49 3c 72 77 a0 be 8f 2a 8e 3d
       -0.2723088 0.012297127 -0.3134113 0.06941711
000060 80 93 d0 bd cc 52 03 bd d6 48 d7 be d9 fb b2 3e
       -0.101843834 -0.032061383 -0.42047757 0.3495777
000070 de 87 c6 3e 1c 1b 1a 3d 3e 44 1b 3f c9 13 09 3d
       0.38775533 0.03762351 0.60651004 0.033466134
000080 37 a0 b0 3e 79 30 69 3e ee a7 17 bc 9c b4 e1 3e
       0.34497234 0.22772397 -0.009256346 0.44083107
000090 b1 fb 63 3d ec c2 4a 3e e4 80 de 3e 7a 87 cf 3e
       0.055659954 0.1980092 0.4345771 0.40533048
0000a0 7e 8d 16 bf a9 b3 25 bd 2d 8b 95 be 54 78 fa 3e
       -0.5880965 -0.04045454 -0.29207745 0.48919928
0000b0 e6 c3 03 3d fa 09 a0 be b3 de 74 3e fd 9d 15 3c
       0.032169245 -0.31257612 0.23913078 0.009131906
0000c0 0e ae 72 bf fe bf c9 be 72 f5 8a bd 95 5f f6 3e
       -0.94796836 -0.3940429 -0.06785096 0.48119798
0000d0 f9 db 03 be 1d a5 38 3d b9 42 95 3c 49 7b ba be
       -0.12876882 0.04507934 0.018220292 -0.36422184
0000e0 4e 7b bc b9 b0 6e e5 bc c6 29 34 3d 39 95 ca 3e
       -0.00035950023 -0.028006881 0.04398515 0.39566973
0000f0 ff 2a ca 3d 97 53 aa 3e 25 ca 21 3d 63 a0 d0 3e
       0.09871482 0.332669 0.03949942 0.40747365

weight f4 [1, 64]
000000 32 24 17 c0 51 89 9c c0 36 13 db bf 6e af db 40
       -2.3615842 -4.8917623 -1.7115238 6.8651648
000010 02 81 88 c0 b1 96 a7 3c 88 5f 60 c0 df 49 00 40
       -4.265748 0.020457597 -3.5058308 2.0045087
000020 59 cc 70 40 c0 3a 16 3f e7 0e 3f 3c 33 38 cd 3e
       3.7624724 0.58683395 0.011661268 0.4008194
000030 ae ba fb 3f b4 51 cf 40 44 fb 63 c0 5e 4d 02 3d
       1.9666345 6.4787235 -3.562211 0.031812064
000040 e7 9f a7 3f ae fc f7 bf 10 2c bb bb 56 23 32 3e
       1.3095673 -1.9373987 -0.00571204 0.17396292
000050 64 f3 3c c0 bc 6b 89 3c 2a a8 ad bf 85 28 6c c0
       -2.9523554 0.016775005 -1.3566945 -3.689973
000060 ed c8 3c c0 f9 77 a5 c0 6b 04 74 c0 79 23 a8 40
       -2.9497635 -5.170895 -3.8127697 5.25433
000070 10 06 8f 3f 88 78 9e 3c 37 17 23 40 88 f4 c5 bf
       1.1173725 0.019344583 2.548292 -1.546525
000080 dd ca 80 3e 57 ee 68 40 2e c4 bb 3c 97 18 73 3f
       0.25154772 3.639547 0.022920694 0.94959396
000090 cd 79 fa 3c 5b c2 96 c0 0c a6 ef 3e 38 64 48 3f
       0.030575657 -4.711225 0.4680637 0.7827792
0000a0 2c 87 12 c0 81 ca dd ba 3e ef e1 bf 8e b7 b9 3e
       -2.2895002 -0.0016921313 -1.7651136 0.36272854
0000b0 bb 6c cf 3b f8 a2 83 40 8b d7 70 40 a1 9a a6 c0
       0.0063301004 4.1136436 3.7631557 -5.2063756
0000c0 7c 70 f1 bf 4c 85 9e bf 85 ee a4 c0 f9 2a 10 3f
       -1.8862453 -1.2384429 -5.154116 0.5631557
0000d0 7c 7b 28 c0 49 5f 32 3c 24 1d 38 3d 77 38 0b c0
       -2.632537 0.010886976 0.044949666 -2.1753213
0000e0 4a 3d 81 bc e0 f6 71 bc a1 ae f0 3b 8d 64 93 3f
       -0.015776295 -0.014768332 0.007345036 1.1515061
0000f0 4e d2 a0 c0 fb f6 c2 3e fd fe c0 3b 97 87 00 3f
       -5.025672 0.38079056 0.005889772 0.50206894
