强化学习TD3_py/run/critic_1.pt (torch, 23321 bytes, 7 tensors)

weight f4 [64, 7]
-0.88308936 -1.4451706 -0.21461478 -0.23133096 -0.29507235 -0.5110793 -0.1095548 -0.8141836
0.556562 -0.13934694 -0.16833329 -0.20744517 0.19106081 -0.0701373 0.5656646 -0.77821845
-0.061577335 -0.10661809 0.027357658 -0.22672169 -0.062975 0.28546107 1.7912918 0.19796862
0.016231714 0.31628314 0.1601045 0.040002666 0.35449794 -2.299414 -0.024945589 -0.33036557
-0.11873091 -0.30353191 -0.1926797 0.69658524 -0.52928686 -0.10102821 0.014382676 -0.045943856
0.053089157 -0.3074766 -1.6961834 1.7489966 0.05238023 -0.093428455 -0.09233829 -0.05824698
-0.10854366 1.4790599 1.412704 -0.049946547 0.30165553 0.08958728 0.21427046 0.13872121
0.5998872 4.005723 0.19534405 0.2317033 0.48936293 0.08579976 0.22425027 0.101957306
-0.7244565 -0.10619716 -0.21091701 -0.13669598 -0.006890956 -0.08273964 1.5057864 -0.96316046
0.06975983 0.06881839 -0.0050304746 0.043869562 0.004858886 0.81684697 -1.1128654 -0.14128222
0.029381542 -0.17833425 -0.1389662 -0.087136105 0.8449276 -1.2550402 -0.13319133 0.03031548
-0.078348204 -0.05078024 -0.16205919 0.0656057 0.057838 -0.025728855 -0.05058371 -0.19465877
-0.058746707 0.03517169 0.36589316 -0.4830535 -0.06068783 -0.095292866 0.066853225 -0.09553738
-0.05747292 1.7739756 1.632547 0.23069105 0.2951788 0.15784156 0.21431684 0.27249357
0.020544648 0.30873543 0.0049403454 -0.14376883 -0.01454474 -0.17619623 -0.008696824 0.06910098
-0.1741692 -0.24377629 -0.32429048 -0.25183097 -0.29393557 -0.14666899 -0.0026595094 0.58482313
-0.10637097 -0.07222733 -0.1892251 -0.0933861 -0.07735066 2.3124824 2.5342455 0.17317443
0.407811 0.2891276 0.5416163 0.18432052 0.014958864 0.06707848 -0.15555513 -0.08409737
-0.13903153 0.08533868 -0.0028341117 0.11054873 0.07646833 -0.06895936 -0.0665026 0.0044608866
-0.15384799 -0.12309684 -0.02983163 -0.033728283 -0.014572101 -0.048967753 -0.07325886 -0.102267355
-0.046958778 2.0267642 1.4192188 0.20145023 0.28369713 0.113643005 0.14358479 0.24346441
-1.0181602 -1.2015511 -0.2693713 -0.34495434 -0.19897974 -0.28385475 -0.2768955 3.7640972
0.015066525 0.31817564 0.37521222 0.2277051 0.44432208 0.4140533 -0.0011572093 0.19601741
-0.09777148 -0.27483892 -0.06903504 0.11177251 -0.02873077 0.032796573 -0.51080364 -0.15060714
-0.10542181 0.096242994 -0.1134713 -0.12855783 0.4383465 1.3814105 0.1412118 0.028654851
0.06623161 0.04555495 -0.07470748 0.12639484 -0.79900205 -0.047672328 -0.095175445 -0.17394815
-0.12913531 -0.16989927 0.6130803 3.4338727 0.11383438 0.24438702 0.22258283 0.09988199
0.18493812 1.6715935 0.8538197 -0.027573979 0.13159034 0.042906146 0.18468988 0.045746084
0.8617617 1.2133509 0.15345398 0.19753313 0.15675187 0.26336208 0.07635807 1.6187449
-1.2348734 0.015003585 0.03981718 0.00558197 -0.121772334 0.08101122 -0.66078573 1.5999255
-0.012799258 0.2258079 0.14737695 -0.039428525 -0.024964983 0.25750443 0.8436229 0.048599962
0.12483541 -0.0067951186 0.3015419 0.081711374 -1.1450278 2.29132 -0.014570857 0.07307862
00000000: 2512 62bf 5afb b8bf fac3 5bbe 06e2 6cbe
00000010: b913 97be 18d6 02bf 445e e0bd 566e 50bf
00000020: d97a 0e3f f7b0 0ebe 905f 2cbe 826c 54be
00000030: 72a5 433e 25a4 8fbd 65cf 103f 5339 47bf
00000040: 8438 7cbd 965a dabd 2b1d e03c bb29 68be
00000050: 09f9 80bd f427 923e 0d49 e53f 49b8 4a3e
00000060: 5ff8 843c ddef a13e 6ff2 233e d6d9 233d
00000070: c180 b53e 9929 13c0 b15a ccbc ad25 a9be
00000080: 3129 f3bd 8968 9bbe d44d 45be 6953 323f
00000090: 587f 07bf e1e7 cebd 51a5 6b3c a02f 3cbd
000000a0: 0474 593d 936d 9dbe 8a1c d9bf 1fdf df3f
000000b0: a78c 563d 6b57 bfbd db1b bdbd 6394 6ebd
000000c0: 234c debd d651 bd3f 7cd3 b43f c094 4cbd
000000d0: 9872 9a3e 8979 b73d b769 5b3e ef0c 0e3e
000000e0: 3592 193f e22e 8040 4508 483e a143 6d3e
000000f0: c78d fa3e c9b7 af3d dda1 653e fece d03d
00000100: fb75 39bf e67d d9bd a1fa 57be 08fa 0bbe
00000110: 87cd e1bb 6673 a9bd 9cbd c03f af91 76bf
00000120: 3ede 8e3d a8f0 8c3d aed6 a4bb 92b0 333d
00000130: 4a37 9f3b e21c 513f 6072 8ebf 49ac 10be
00000140: 8fb1 f03c 419d 36be 284d 0ebe 6a74 b2bd
00000150: 2d4d 583f 28a5 a0bf 4f63 08be 2b58 f83c
00000160: 0675 a0bd f1fe 4fbd d8f2 25be 485c 863d
00000170: 8ae7 6c3d 52c5 d2bc dd30 4fbd a154 47be
00000180: 63a0 70bd 3110 103d 5956 bb3e ca52 f7be
00000190: cd93 78bd e828 c3bd 58ea 883d 1aa9 c3bd
000001a0: b968 6bbd a211 e33f 4df7 d03f 463a 6c3e
000001b0: ad21 973e 38a1 213e e075 5b3e 4784 8b3e
000001c0: 404d a83c 9212 9e3e 9fe2 a13b 2338 13be
000001d0: 104d 6ebc c96c 34be 207d 0ebc d184 8d3d
000001e0: 6959 32be 7ea0 79be 6709 a6be fdef 80be
000001f0: b97e 96be 6530 16be 2a4b 2ebb f8b6 153f
00000200: 06d9 d9bd eceb 93bd 3ac4 41be 3641 bfbd
00000210: 066a 9ebd b6ff 1340 1431 2240 a354 313e
00000220: 9acc d03e 8808 943e 5ea7 0a3f 85be 3c3e
00000230: 0616 753c 7160 893d d849 1fbe 3e3b acbd
00000240: 485e 0ebe 0cc6 ae3d 81bc 39bb 5f67 e23d
00000250: 6e9b 9c3d 913a 8dbd 8432 88bd a12c 923b
00000260: 548a 1dbe 321a fcbd 7661 f4bc ab26 0abd
00000270: d2bf 6ebc 6992 48bd be08 96bd 8c71 d1bd
00000280: d957 40bd 81b6 0140 f6a8 b53f f848 4e3e
00000290: c040 913e aabd e83d e407 133e bc4e 793e
000002a0: 1353 82bf 6dcc 99bf 09eb 89be db9d b0be
000002b0: 58c1 4bbe 6955 91be 3fc5 8dbe f8e6 7040
000002c0: 96d9 763c ebe7 a23e d11b c03e 872b 693e
000002d0: 2f7e e33e cbfe d33e 80ad 97ba cab8 483e
000002e0: 6a3c c8bd b0b7 8cbe 3e62 8dbd fce8 e43d
000002f0: cb5c ebbc b355 063d 07c4 02bf c238 1abe
00000300: 64e7 d7bd 0c1b c53d a463 e8bd aaa4 03be
00000310: f46e e03e 0fd2 b03f d399 103e 94bd ea3c
00000320: 70a4 873d d497 3a3d 3c00 99bd a66d 013e
00000330: 668b 4cbf 0f44 43bd 58eb c2bd 771f 32be
00000340: 0c3c 04be 13fa 2dbe d5f2 1c3f 92c4 5b40
00000350: 0022 e93d 9740 7a3e c1ec 633e ee8e cc3d
00000360: 6b60 3d3e c7f6 d53f ee93 5a3f d3e2 e1bc
00000370: 9ebf 063e 5bbe 2f3d 581f 3d3e 3f60 3b3d
00000380: 6a9c 5c3f 154f 9b3f 0a23 1d3e 2046 4a3e
00000390: 9083 203e 65d7 863e 9f61 9c3d 0833 cf3f
000003a0: 5510 9ebf 99d1 753c 5717 233d f5e8 b63b
000003b0: c663 f9bd 36e9 a53d 4129 29bf 5cca cc3f
000003c0: fbb3 51bc 303a 673e fce9 163e ce7f 21bd
000003d0: 5d83 ccbc 9fd7 833e acf7 573f c110 473d
000003e0: b5a9 ff3d 96a9 debb b363 9a3e 4b58 a73d
000003f0: 4590 92bf fda4 1240 9bba 6ebc 3eaa 953d

bias f4 [64]
-0.18434095 -0.049561452 0.0050602644 0.23163429 -0.15858325 0.023134323 0.049493946 0.17355129
0.34075382 -0.011144527 0.108987905 -0.019271454 -0.05390938 0.1 0.007868013 0.27583
0.018938955 -0.125581 0.054800328 0.4191817 0.050541934 0.1 0.09255223 0.28107506
-0.14940736 0.45728415 0.060958754 -0.0040291743 0.1060031 -0.00016171004 0.25988126 0.15451957
0.28348604 0.14015146 0.15188216 0.20840196 0.063311726 -0.00643765 -0.021922676 0.20437752
0.2095666 0.145246 -0.05438281 -0.07658051 0.036709882 0.07004905 0.049401976 0.11973652
-0.1663448 0.08608864 -0.15745792 0.1 -0.012422645 0.24720697 -0.016139625 0.31568187
0.05514101 0.22749451 0.09089933 0.1226661 0.063334994 0.013320449 -0.091224164 0.09907718
00000000: e0c3 3cbe f300 4bbd 93d0 a53b 8a31 6d3e
00000010: a663 22be 3184 bd3c 2aba 4a3d 6eb7 313e
00000020: 4977 ae3e 8997 36bc 0d35 df3d 2bdf 9dbc
00000030: 15d0 5cbd cdcc cc3d d7e8 003c 9739 8d3e
00000040: de25 9b3c 4e98 00be 4f76 603d fc9e d63e
00000050: 0f05 4f3d cdcc cc3d 068c bd3d 12e9 8f3e
00000060: 3efe 18be 2621 ea3e e3af 793d 2a07 84bb
00000070: 2718 d93d b590 29b9 280f 853e 613a 1e3e
00000080: 1525 913e dd83 0f3e ff86 1b3e 5367 553e
00000090: 94a9 813d ecf2 d2bb 2f97 b3bc 5748 513e
000000a0: a098 563e 5ebb 143e 82c0 5ebd 3ed6 9cbd
000000b0: 1a5d 163d e075 8f3d ba59 4a3d 6c38 f53d
000000c0: 4b56 2abe 3e4f b03d a63c 21be cdcc cc3d
000000d0: 5a88 4bbc d323 7d3e 3f37 84bc 0ea1 a13e
000000e0: 8adb 613d 52f4 683e 6e29 ba3d 5d38 fb3d
000000f0: c7b5 813d 033e 5a3c bcd3 babd fae8 ca3d

weight f4 [64, 2]
-0.021698115 0.047583364 -0.015008998 0.03782159 -0.014113515 0.053849004 0.020044504 -0.057202604
-0.009333924 0.010703678 -0.05506755 -0.060332175 0.0011663114 0.014882336 0.004067875 0.015855841
0.0038833919 -0.06378957 0.033964455 0.013065717 -0.00014862143 -0.0034311407 0.015210011 -0.078221254
-0.0331443 -0.072156794 -0.01755169 0.00862358 0.013333189 0.0018392666 0.023310885 -0.047504675
0.12224542 -0.115848325 -1.1336604 0.3756246 -0.21706086 0.09240919 0.03242119 -0.03308287
0.08761071 0.053403627 -0.05494964 -0.084213935 0.020172726 -0.002035992 0.008807703 -0.027757885
-0.008398121 0.019685125 -0.019266853 -0.01996948 0.033823673 -0.13611645 0.01929825 0.0020967117
0.025184594 0.19666903 -0.0044684447 0.01605629 0.0031079627 -0.010232769 0.08363567 -0.31473774
0.0122757675 0.0048465636 -0.002907997 -0.0029114336 -0.014425602 0.061652254 -0.011382744 0.13020477
-0.017197922 -0.0042804223 0.0052320994 0.002195988 -0.06704891 -0.09934657 0.02318614 0.022112384
0.027096145 0.05583625 -0.0088621965 0.0058315396 0.014634243 0.0074054687 0.19714715 0.0051229442
-0.004085753 -0.005619314 -0.023836182 -0.038644902 -0.17537712 0.00434404 -0.036098 0.16996925
-0.023061499 0.022727977 -0.02596684 -0.0052627157 -0.012926051 0.02780882 -0.0036145262 0.055018015
0.023043573 -0.072656214 -0.19722086 0.0364685 -0.09656472 0.21304297 -0.0016079689 0.033939194
-0.019772464 0.01957497 -0.0116302725 -0.0822862 -0.12877762 -0.16040555 -0.015162152 -0.012440783
0.02028596 0.04432529 0.00202281 -0.0025078992 -0.043396093 0.00013342216 0.22538602 -0.24164703
00000000: 3fc0 b1bc c6e6 423d 4de8 75bc d0ea 1a3d
00000010: 5f3c 67bc c690 5c3d 5f34 a43c 474d 6abd
00000020: 51ed 18bc 7b5e 2f3c 838e 61bd df1e 77bd
00000030: ebde 983a 0bd5 733c cf4b 853b 1ce4 813c
00000040: 8180 7e3b 1ba4 82bd 501e 0b3d 9711 563c
00000050: 43d7 1bb9 fddc 60bb 6933 793c 7732 a0bd
00000060: 51c2 07bd f1c6 93bd 90c8 8fbc eb49 0d3c
00000070: 7373 5a3c 8c13 f13a 78f6 be3c 4394 42bd
00000080: cf5b fa3d e341 edbd c91b 91bf de51 c03e
00000090: 3445 5ebe 0841 bd3d 15cc 043d e781 07bd
000000a0: 3e6d b33d c3bd 5a3d e012 61bd 5b78 acbd
000000b0: 4641 a53c 476e 05bb 2f4e 103c 8164 e3bc
000000c0: 4698 09bc b342 a13c 85d5 9dbc 0997 a3bc
000000d0: b18a 0a3d 1c62 0bbe 5d17 9e3c fc68 093b
000000e0: ec4f ce3c 9b63 493e 086c 92bb 7b88 833c
000000f0: f6ae 4b3b 58a7 27bc 2e49 ab3d 4e25 a1be
00000100: 4d20 493c eccf 9e3b 1894 3ebb c0cd 3ebb
00000110: 5c59 6cbc 1387 7c3d b07e 3abc 6654 053e
00000120: a8e2 8cbc c942 8cbb 0872 ab3b 91ea 0f3b
00000130: f050 89bd 3776 cbbd dcf0 bd3c 0825 b53c
00000140: bcf8 dd3c 8db4 643d bf32 11bc 8016 bf3b
00000150: 77c4 6f3c 93a9 f23b f1e0 493e 5fde a73b
00000160: c8e1 85bb 3922 b8bb 1944 c3bc 1e4a 1ebd
00000170: 0f96 33be 7358 8e3b 7fdb 13bd 6b0c 2e3e
00000180: 78eb bcbc 0630 ba3c 69b8 d4bc dc72 acbb
00000190: cac7 53bc 53cf e33c b0e1 6cbb 925a 613d
000001a0: e0c5 bc3c c8cc 94bd 44f4 49be fe5f 153d
000001b0: b9c3 c5bd f027 5a3e 7cc2 d2ba d303 0b3d
000001c0: ddf9 a1bc b05b a03c e68c 3ebc ab85 a8bd
000001d0: 48de 03be 5a41 24be ad6a 78bc 6dd4 4bbc
000001e0: be2e a63c 6f8e 353d 1f91 043b 915b 24bb
000001f0: 1ac0 31bd 3de7 0b39 98cb 663e 5272 77be

bias f4 [64]
-0.18434095 -0.049561452 0.0050602644 0.23163429 -0.15858325 0.023134323 0.049493946 0.17355129
0.34075382 -0.011144527 0.108987905 -0.019271454 -0.05390938 0.1 0.007868013 0.27583
0.018938955 -0.125581 0.054800328 0.4191817 0.050541934 0.1 0.09255223 0.28107506
-0.14940736 0.45728415 0.060958754 -0.0040291743 0.1060031 -0.00016171004 0.25988126 0.15451957
0.28348604 0.14015146 0.15188216 0.20840196 0.063311726 -0.00643765 -0.021922676 0.20437752
0.2095666 0.145246 -0.05438281 -0.07658051 0.036709882 0.07004905 0.049401976 0.11973652
-0.1663448 0.08608864 -0.15745792 0.1 -0.012422645 0.24720697 -0.016139625 0.31568187
0.05514101 0.22749451 0.09089933 0.1226661 0.063334994 0.013320449 -0.091224164 0.09907718
00000000: e0c3 3cbe f300 4bbd 93d0 a53b 8a31 6d3e
00000010: a663 22be 3184 bd3c 2aba 4a3d 6eb7 313e
00000020: 4977 ae3e 8997 36bc 0d35 df3d 2bdf 9dbc
00000030: 15d0 5cbd cdcc cc3d d7e8 003c 9739 8d3e
00000040: de25 9b3c 4e98 00be 4f76 603d fc9e d63e
00000050: 0f05 4f3d cdcc cc3d 068c bd3d 12e9 8f3e
00000060: 3efe 18be 2621 ea3e e3af 793d 2a07 84bb
00000070: 2718 d93d b590 29b9 280f 853e 613a 1e3e
00000080: 1525 913e dd83 0f3e ff86 1b3e 5367 553e
00000090: 94a9 813d ecf2 d2bb 2f97 b3bc 5748 513e
000000a0: a098 563e 5ebb 143e 82c0 5ebd 3ed6 9cbd
000000b0: 1a5d 163d e075 8f3d ba59 4a3d 6c38 f53d
000000c0: 4b56 2abe 3e4f b03d a63c 21be cdcc cc3d
000000d0: 5a88 4bbc d323 7d3e 3f37 84bc 0ea1 a13e
000000e0: 8adb 613d 52f4 683e 6e29 ba3d 5d38 fb3d
000000f0: c7b5 813d 033e 5a3c bcd3 babd fae8 ca3d

weight f4 [64, 64]
-0.024626834 -0.12430544 0.29643103 -0.8538073 -0.24116671 0.074255675 -0.1970731 0.098632395
-0.3371085 0.23726521 -0.55746186 -7.0350804 0.3223937 0.22675636 0.06764491 -0.0886139
-0.18813369 -0.11819489 -0.060630824 -0.19516183 -0.09284556 -0.076403655 -0.1038513 -1.1045165
0.38137674 -0.043103445 -0.2036705 0.10215013 -0.08410737 3.9905121 -0.2648634 0.060861684
-0.29763013 -3.1054976 -1.599377 -0.083469614 -1.4506723 -0.6370511 -0.022577375 -0.82921124
-5.039176 -1.8813872 0.20613788 0.030602822 0.0172248 -1.2913996 -0.40879515 -0.00040658153
-0.6881074 0.0051979367 0.010371101 0.09484678 -7.014932 -0.03129823 -0.33109084 -0.22113863
-1.5190411 -0.36139184 -0.23503247 -0.91259706 0.0028605396 -0.15552427 -0.81543565 -0.022007924
-0.47227523 0.53594875 0.21134876 -0.3481279 -3.0506685 -0.19227836 -1.3474817 0.7585015
0.5387072 -0.0425851 1.253306 0.37258372 -0.62298745 -0.0815702 0.0718612 -0.25205097
-0.04883436 -0.15886416 -0.31114885 -0.08839882 -0.06092607 -0.12639563 0.042073946 0.52615416
0.20798 -0.08530369 -0.16046445 -0.06732992 0.0186133 0.928632 0.46373165 0.16845292
-0.23076615 0.7914893 -0.027233502 0.028327396 1.111792 2.1504877 -0.08804568 0.11315289
0.19784455 -0.34030968 1.1017851 -0.03737782 1.5699182 -0.2698715 -0.09210028 -0.16223095
-0.98721397 -1.4336544 -2.8908663 -0.020458572 0.40934795 0.23651373 -0.3361022 -0.061017882
0.30794173 -0.47857252 -0.05949063 -0.13008705 0.2157617 2.0467784 -0.53562313 0.07949221
-0.48533484 0.7383452 -0.012295402 -0.3404346 -3.2232654 -0.0054568346 -1.0739902 0.82887536
0.6445722 0.08159841 1.3024642 0.33213255 -0.6413395 -0.05399357 0.16973388 -0.39631614
-0.1416691 0.09888386 -0.1636061 -0.044211168 -0.029766575 0.07191298 -0.0715688 0.48803002
0.44656336 -0.017450027 -0.0212631 0.058854472 0.19988765 0.95021254 0.79273343 0.008357019
-0.19477558 0.522174 -0.14732516 -0.13352028 0.95489585 2.0375228 0.09686714 0.22023731
0.25405416 -0.31064552 1.2046448 -0.006006106 1.555919 -0.44716954 -0.117441885 -0.11586594
-0.9872902 -1.348946 -2.8144207 -0.021849338 0.27298188 0.048038337 -0.2752076 -0.24261288
0.47799677 -0.512002 -0.11911315 -0.21739842 0.38362923 2.0525787 -0.67334527 0.14658847
-0.4739822 0.38004705 0.10007796 0.0026170516 -3.3533683 -0.22410257 -1.2781686 0.73327833
0.50637984 0.29036126 1.2958996 0.27144253 -0.66659147 -0.16968928 0.19189656 -0.18756412
-0.18428555 -0.077282675 -0.10225387 -0.2829167 -0.049933285 -0.062423475 -0.0841873 0.5197098
0.17410715 0.07386446 0.09787244 0.16438442 0.20254251 1.0362216 0.7628823 -0.008249174
-0.1709198 0.74924743 -0.26640618 0.061503872 1.1942799 2.2352269 -0.048111044 0.11112915
0.46150255 -0.45243892 1.2014225 0.08227122 1.7282276 -0.047007196 -0.14829732 -0.016531808
-1.4815933 -1.3480518 -3.3363228 -0.010907906 0.3288329 0.28058615 -0.057564132 0.014875866
0.32639143 -0.522784 -0.07846221 -0.3610923 0.27983743 2.0078151 -0.76144093 0.13752319
00000000: 37be c9bc da93 febd cfc5 973e 1d93 5abf
00000010: 68f4 76be 5c13 983d 88cd 49be c8ff c93d
00000020: 7c99 acbe a7f5 723e d2b5 0ebf 611f e1c0
00000030: c910 a53e d232 683e 6a89 8a3d 347b b5bd
00000040: 1ea6 40be 2a10 f2bd 0758 78bd 81d8 47be
00000050: d025 bebd 8579 9cbd feaf d4bd cc60 8dbf
00000060: d043 c33e 3d8d 30bd 008f 50be 1634 d13d
00000070: 7c40 acbd 8d64 7f40 2d9c 87be 1a4a 793d
00000080: fa62 98be 79c0 46c0 63b8 ccbf 1ef2 aabd
00000090: a1af b9bf c815 23bf 30f4 b8bc 3047 54bf
000000a0: ee40 a1c0 4cd1 f0bf cf15 533e c5b2 fa3c
000000b0: 061b 8d3c 954c a5bf 994d d1be 732a d5b9
000000c0: ce27 30bf 7453 aa3b 8deb 293c 073f c23d
000000d0: 537a e0c0 9332 00bd bd84 a9be 2a72 62be
000000e0: f06f c2bf 5a08 b9be 5aac 70be f69f 69bf
000000f0: e477 3b3b c141 1fbe 64c0 50bf f649 b4bc
00000100: 0fce f1be f033 093f cf6b 583e d23d b2be
00000110: 273e 43c0 9ee4 44be 487a acbf 282d 423f
00000120: b7e8 093f b76d 2ebd 556c a03f 4bc3 be3e
00000130: 1b7c 1fbf 470e a7bd f72b 933d d30c 81be
00000140: 8a06 48bd 49ad 22be e74e 9fbe 710a b5bd
00000150: 9d8d 79bd db6d 01be bb55 2c3d 0ab2 063f
00000160: b6f8 543e b3b3 aebd cb50 24be 45e4 89bd
00000170: eb7a 983c d4ba 6d3f 3c6e ed3e ec7e 2c3e
00000180: f64d 6cbe 0b9f 4a3f cb18 dfbc db0e e83c
00000190: 334f 8e3f 97a1 0940 4b51 b4bd b4bc e73d
000001a0: c397 4a3e 123d aebe 4b07 8d3f 7c19 19bd
000001b0: 14f3 c83f 992c 8abe 129f bcbd df1f 26be
000001c0: 0eba 7cbf fd81 b7bf f403 39c0 bc98 a7bc
000001d0: 0e96 d13e a830 723e 9615 acbe e3ed 79bd
000001e0: 8aaa 9d3e 7507 f5be 72ac 73bd 8a35 05be
000001f0: a3f0 5c3e 6bfe 0240 991e 09bf d0cc a23d
00000200: cf7d f8be 3104 3d3f a772 49bc 724d aebe
00000210: fb49 4ec0 3fcf b2bb 8378 89bf 2d31 543f
00000220: af02 253f 111d a73d 26b7 a63f 470d aa3e
00000230: d32e 24bf 5d28 5dbd b8ce 2d3e f3e9 cabe
00000240: b411 11be 9f83 ca3d 5c88 27be c516 35bd
00000250: 08d9 f3bc 1d47 933d aa92 92bd 12df f93e
00000260: f4a3 e43e 5cf3 8ebc f42f aebc 6311 713d
00000270: 59af 4c3e 2141 733f 94f0 4a3f e1eb 083c
00000280: 4073 47be 32ad 053f 68dc 16be 8ab9 08be
00000290: 0e74 743f c666 0240 4762 c63d e485 613e
000002a0: 6313 823e ee0c 9fbe cd31 9a3f dece c4bb
000002b0: 5b28 c73f 68f3 e4be 5f85 f0bd 1f4b edbd
000002c0: 0dbf 7cbf 43aa acbf 781f 34c0 62fd b2bc
000002d0: 48c4 8b3e d9c3 443d 03e8 8cbe 836f 78be
000002e0: febb f43e 9012 03bf 98f1 f3bd b19d 5ebe
000002f0: 0d6b c43e 735d 0340 5b60 2cbf 4a1b 163e
00000300: cbad f2be 8795 c23e acf5 cc3d d782 2b3b
00000310: 969d 56c0 257b 65be 079b a3bf 21b8 3b3f
00000320: 1ca2 013f 3baa 943e 0ae0 a53f 84fa 8a3e
00000330: bda5 2abf 07c3 2dbe 8880 443e cf10 40be
00000340: 5ab5 3cbe 6146 9ebd 7a6a d1bd 75da 90be
00000350: d886 4cbd c2af 7fbd 646a acbd b40b 053f
00000360: 2549 323e 4046 973d 5971 c83d 6454 283e
00000370: 4e67 4f3e e9a2 843f 414c 433f 8b27 07bc
00000380: 9a05 2fbe aece 3f3f 6466 88be 7ceb 7b3d
00000390: 2ade 983f f50d 0f40 1610 45bd ae97 e33d
000003a0: 104a ec3e 13a6 e7be 36c8 993f d07d a83d
000003b0: 9036 dd3f 9e8a 40bd 41db 17be b76d 87bc
000003c0: d9a4 bdbf f68c acbf 5086 55c0 13b7 32bc
000003d0: c95c a83e fda8 8f3e 5ec8 6bbd e7b9 733c
000003e0: c71c a73e 2cd5 05bf ccb0 a0bd 17e1 b8be
000003f0: da46 8f3e 0b80 0040 cbed 42bf e1d2 0c3e

bias f4 [64]
-0.045218855 0.4023637 0.41385767 0.45046887 0.4360227 0.45717454 -0.28442565 -0.03261476
-0.007886088 0.34892437 -0.0062290216 -0.14638118 -0.18325257 0.39488763 -0.4952214 0.11965439
0.011668115 -0.6493593 0.4680244 -0.21147129 0.43285498 -0.6166306 -0.011458465 0.037295014
0.033182386 -0.0040643145 0.15623285 0.014950558 -0.958487 -0.11905874 0.4367255 0.0059500006
0.030635841 -0.0036325303 0.47472724 -0.050945107 -0.3355365 -0.04193273 -0.016967386 -0.31318992
-0.31108302 0.40097177 0.44850498 -0.07635366 -0.17696197 0.47567648 -0.018787296 0.07415315
0.47021148 -0.0026669728 0.47562698 -0.011856025 0.049476765 -0.1249555 -0.14120393 -0.035178922
-0.0803778 0.46799445 -0.15376072 0.7007022 0.44088104 0.29791856 -0.046235774 0.54162335
00000000: 6837 39bd 9d02 ce3e 27e5 d33e dba3 e63e
00000010: 5e3e df3e c812 ea3e 3da0 91be 0e97 05bd
00000020: a734 01bc 37a6 b23e d21c ccbb f3e4 15be
00000030: 90a6 3bbe b62e ca3e a98d fdbe 5c0d f53d
00000040: 9f2b 3f3c 693c 26bf e5a0 ef3e ee8b 58be
00000050: 2b9f dd3e 81db 1dbf 49bc 3bbc a8c2 183d
00000060: 41ea 073d f12d 85bb 81fb 1f3e 2ff3 743c
00000070: 675f 75bf 12d5 f3bd 7c9a df3e 39f8 c23b
00000080: 04f8 fa3c bf0f 6ebb 730f f33e d1ab 50bd
00000090: 71cb abbe a7c1 2bbd 30ff 8abc 6e5a a0be
000000a0: 4646 9fbe 2c4c cd3e 72a2 e53e 4f5f 9cbd
000000b0: 8535 35be de8b f33e d1e7 99bc 9bdd 973d
000000c0: 8fbf f03e 61c8 2ebb 6185 f33e c63f 42bc
000000d0: 26a8 4a3d abe8 ffbd c397 10be c617 10bd
000000e0: 1e9d a4bd f89c ef3e 7373 1dbe 3861 333f
000000f0: 29bb e13e c888 983e b961 3dbd d4a7 0a3f

weight f4 [1, 64]
-5.523829 0.31901702 0.40139073 0.42228398 0.3485905 0.3319517 -2.0532339 0.0088624
0.031223577 -5.6072574 0.010854659 -1.5727749 -5.5407996 -3.5036948 -3.1241 -1.3603365
-0.014737639 -3.5264306 0.40626076 -1.2679622 3.6250978 -3.7466233 -0.0026670874 0.026800953
-5.4211655 -3.9848669 -2.579119 0.02270423 -0.7333939 -2.9041665 0.3961259 -0.008281221
0.01640392 0.01105688 0.46166906 0.0031699506 -2.3566682 -2.3607783 -3.2619708 -1.8693199
-1.1824701 0.3157677 0.3440064 -4.2014008 -1.6383678 0.44475612 -0.02308437 0.20751026
0.42449263 0.0055076154 0.44095784 -0.04151871 -0.058648612 -3.2438328 -4.229524 -2.375797
-1.2110668 0.40671024 -8.163722 1.4653227 0.36187387 -4.996044 -0.030564602 1.1866171
00000000: 35c3 b0c0 3356 a33e 1683 cd3e 9b35 d83e
00000010: 747a b23e 93f5 a93e 2f68 03c0 9a33 113c
00000020: 96c8 ff3c a76e b3c0 bdd7 313c b050 c9bf
00000030: 3b4e b1c0 893c 60c0 41f1 47c0 821f aebf
00000040: 2376 71bc 0ab1 61c0 6901 d03e 964c a2bf
00000050: 9a01 6840 adc8 6fc0 4dca 2ebb ac8d db3c
00000060: 307a adc0 0f08 7fc0 4910 25c0 39fe b93c
00000070: b4bf 3bbf dddd 39c0 04d1 ca3e f5ad 07bc
00000080: 8361 863c ea27 353c e35f ec3e f2be 4f3b
00000090: a7d3 16c0 fe16 17c0 21c4 50c0 e045 efbf
000000a0: 2e5b 97bf 4eac a13e 9b21 b03e e071 86c0
000000b0: 09b6 d1bf 13b7 e33e 6f1b bdbc 927d 543e
000000c0: 1957 d93e 3a79 b43b 3ac5 e13e 860f 2abd
000000d0: 8739 70bd f59a 4fc0 4358 87c0 0f0d 18c0
000000e0: 3d04 9bbf 533c d03e 9b9e 02c1 b28f bb3f
000000f0: 8847 b93e 98df 9fc0 9e62 fabc 12e3 973f
