强化学习TD3_py/run/critic_2_target.pt (torch, 23391 bytes, 7 tensors)

weight f4 [64, 7]
000000 f8 00 ca bf 19 2c f9 bf c1 b2 49 be 4e 30 ba be
       -1.5781546 -1.9466583 -0.19697095 -0.3636498
000010 67 26 53 be e0 b0 fd be 5d eb d8 be cd be 95 bf
       -0.20620118 -0.49549007 -0.42367068 -1.1698853
000020 d5 4f 98 bf 36 0d 94 be 13 70 6a be 87 4a a2 be
       -1.1899363 -0.2891633 -0.22894315 -0.31697485
000030 0d 64 88 be cd a3 8d be 38 be 4e bd fb 4c fd bc
       -0.26638833 -0.27664033 -0.050474375 -0.030920496
000040 46 a9 26 3d 9f 30 2e bc 71 b5 c7 bc 2b c4 6c bd
       0.040688775 -0.010631709 -0.02437851 -0.057804268
000050 ec 03 72 be 6e b5 b6 be 86 02 3f 3f 51 5c 8c 3e
       -0.23634309 -0.35685295 0.74613225 0.27414182
000060 96 6f 94 3d c9 a3 56 3e a0 70 42 3e 90 c9 22 3e
       0.07247846 0.20960917 0.18988276 0.15897202
000070 40 1a 90 bd 99 73 48 40 72 4d 55 3e 55 db 87 3e
       -0.07036257 3.1320555 0.20830324 0.26534525
000080 b8 09 18 3e 79 73 82 3d 46 2c e3 3c fe 31 a7 bd
       0.14847457 0.06369681 0.027731072 -0.08163832
000090 bc ae 0d be a6 15 23 3c a4 32 68 be 74 6a 79 be
       -0.13836187 0.009953892 -0.22675568 -0.24357015
0000a0 ad 3e 15 3d 38 98 33 bd d4 21 44 40 e4 2c 34 40
       0.036436725 -0.04384634 3.0645647 2.81524
0000b0 63 12 05 3f 30 4a 19 3f 61 aa de 3e 6c 63 88 3e
       0.5198118 0.59878826 0.43489364 0.26638353
0000c0 6e 41 bd 3e fa 1a b7 3d 98 52 bb 3f 92 00 72 3e
       0.3696398 0.08940692 1.4634581 0.2363303
0000d0 92 e5 f7 3d 15 b9 51 3c e5 b6 3b bb 9a 15 4d 3e
       0.12104334 0.012800475 -0.002864295 0.20027772
0000e0 03 69 3f bf 27 fa 36 40 fe b8 59 3d bf 8b f7 3d
       -0.7476961 2.859018 0.053154938 0.12087201
0000f0 c1 cc db 3d 5c 1e 35 3e b3 8e ad bd 17 30 2f be
       0.10732413 0.17687362 -0.08474483 -0.17108189
000100 08 8f ba 3d 66 84 9c be c9 b7 47 be 87 f1 34 3c
       0.09109312 -0.30569762 -0.19503702 0.011043913
000110 c1 bf 51 3d c1 6b c6 bc f0 d6 c6 3f 79 80 92 bf
       0.05120826 -0.024221303 1.5534344 -1.1445457
000120 a5 b1 96 bd dd 00 f9 3d 55 55 60 bd 63 26 04 3d
       -0.07358102 0.12158368 -0.05476888 0.03226317
000130 b3 2f e5 3c 19 c6 f0 3f 7c e1 2a bf 24 aa 38 3e
       0.027976846 1.8810455 -0.6675031 0.18033653
000140 e8 f5 99 bd b7 fd f9 bc 6c 15 ce 3d f2 7e 3f 3d
       -0.07517606 -0.030516488 0.1006268 0.046751924
000150 7f 04 39 bf 68 0b 45 40 71 2c c9 bd 2b a1 f6 3c
       -0.72272485 3.0788212 -0.0982293 0.030106148
000160 a0 34 be bd 1f f7 a8 be c7 3a 2e be 3a 3c 6c bf
       -0.09287381 -0.33001038 -0.1701461 -0.922794
000170 f8 71 49 bf f3 6d 6e be bf c8 2a be ef 70 af be
       -0.7868953 -0.2328413 -0.16678141 -0.3426585
000180 93 ae 6a be 67 c1 af be 63 95 7c bf 71 cd 43 3f
       -0.22918157 -0.34327242 -0.98665446 0.76485354
000190 ac b4 79 bd be c3 16 be 17 b6 a1 bd 9c bd 0a 3d
       -0.060963318 -0.14723107 -0.07896059 0.03387223
0001a0 e9 1d 44 be 34 f6 6e 40 a6 28 3e 3e a7 8b ec 3e
       -0.19152035 3.733777 0.18570194 0.46200296
0001b0 33 00 c2 3e 0e e7 b1 3e cd 1a db 3e 11 f9 d4 3e
       0.37890777 0.34746593 0.42793885 0.41596273
0001c0 ea b3 ca 3f 9c 8c e1 3d 2c e9 71 3e 3f 74 01 3e
       1.5836155 0.11013147 0.23624104 0.12642
0001d0 be 79 b3 3d 42 ba 0f 3e 79 fa ec 3d f0 4e 08 40
       0.08763455 0.14035895 0.11571211 2.129818
0001e0 e1 df 9a 3f fc bb c0 bc 62 7c 74 3e 2f 92 4f 3d
       1.2099572 -0.023527138 0.23875573 0.05067652
0001f0 a1 fd 01 3e df b6 23 3d f9 e6 42 3f 5c 7e 87 bf
       0.12694408 0.03996932 0.76133686 -1.0585437
000200 3e 6d 9a bd ab 2e ee bd cb 0e 78 3d 54 46 72 be
       -0.075403675 -0.11629995 0.060560983 -0.2365964
000210 bd 3d 0b be f0 e1 4a bf 61 fb d2 bf a5 e4 8d be
       -0.1359777 -0.79251003 -1.6482965 -0.27713504
000220 37 d2 21 be 0d b6 8b be 00 42 b5 be aa a5 d6 be
       -0.15802847 -0.2728733 -0.35401917 -0.41923267
000230 f6 bf a9 be 96 58 7c 3f c9 ef 44 3e 4e 72 70 3d
       -0.33154267 0.9857267 0.19232096 0.05870276
000240 0e 60 94 3a 77 e3 9f 3d 05 5f 35 3d ec 68 76 3e
       0.001132013 0.07807057 0.04428007 0.24063462
000250 02 d3 53 3e c3 2d 61 bd f1 ee 4c be 12 4f e3 3c
       0.20685962 -0.054975282 -0.20013024 0.027747665
000260 3c 7e 7a bd b3 2d 67 be 0e b8 13 3f 4e f7 2f bf
       -0.061155543 -0.22576027 0.5770272 -0.6873673
000270 06 08 92 bd 51 74 49 be 18 f6 40 3c 78 79 4e 3c
       -0.071304366 -0.19673277 0.011777423 0.012602203
000280 86 b0 11 be 94 58 89 bf 9b 06 6a 3e f6 13 96 be
       -0.14227495 -1.0730157 0.22854082 -0.29312104
000290 1c 73 73 be 89 84 5b 3c 77 39 2f bd 9b 6f e5 bd
       -0.2377438 0.013398298 -0.042779412 -0.11202928
0002a0 4b a4 b3 bf 1c 72 92 3f 15 0e 1b be 8e 50 28 be
       -1.4034513 1.1441073 -0.1514209 -0.16436979
0002b0 55 09 e8 bc 6e eb d0 bd b9 b8 16 3e e4 84 85 bd
       -0.028324762 -0.10201155 0.14718904 -0.065194875
0002c0 21 6e 5c 3d 40 a2 3f bd c0 1b 32 bb 7c b6 fa bd
       0.053815965 -0.046785593 -0.0027177185 -0.122418374
0002d0 69 a2 49 bc 16 ed 1c be cc 95 87 3f a7 a5 48 3f
       -0.012306788 -0.15324816 1.0592589 0.78377765
0002e0 8e 04 6e 3e 2f c7 26 3e 41 b1 ae 3e 4c d8 95 3e
       0.23243925 0.1628692 0.3411961 0.29266584
0002f0 ca 3d 71 3e c6 a3 29 bc 9b c4 74 bd 83 d2 ea bd
       0.23558727 -0.010353988 -0.05975781 -0.11465933
000300 dc f0 f6 bd e0 a3 b9 bd 98 a6 c7 3d d6 4f 18 be
       -0.12057659 -0.0906446 0.09748572 -0.14874205
000310 04 07 92 bf 1f 91 79 3f 6e 74 c7 bd d2 60 c2 bb
       -1.1408391 0.9748706 -0.09739004 -0.005931952
000320 44 94 e3 3d 79 d6 69 bd 91 c4 93 bd f1 94 5b bf
       0.11112264 -0.057089303 -0.072152264 -0.8577414
000330 a2 bd d5 3d 24 fe f6 bc 00 75 39 be ea bd d3 bd
       0.1043656 -0.03015048 -0.18111038 -0.103389576
000340 cb 99 65 be d2 3f d8 bd 98 00 01 c0 c7 ca 39 40
       -0.22421949 -0.10559048 -2.0156612 2.9030015
000350 3e 7e 9f bc be 1f 2b be 86 93 e2 bc 25 02 16 be
       -0.019469377 -0.16711327 -0.027658235 -0.14649256
000360 ed 3d 0a 3d 69 1b c4 3f 36 33 bd 3e fc 7d 19 3e
       0.033750463 1.5320865 0.36953133 0.14989465
000370 a0 de 82 3d 9e 71 c2 3d 91 a2 d7 3e 5e 94 6d 3e
       0.063901186 0.09494327 0.42116216 0.23201129
000380 65 13 01 3f 2e 55 24 bf 1e 04 2b 3d 42 ee 5c be
       0.5042022 -0.64192474 0.041751973 -0.21575263
000390 51 41 45 bd 88 87 35 be 9d ea 0f be 50 2b b2 3f
       -0.048157994 -0.17727482 -0.14054342 1.3919468
0003a0 a6 17 65 bf f5 3a 89 3d ad a8 fe 3d 74 e3 0a 3e
       -0.8948921 0.06700698 0.12434516 0.13563329
0003b0 81 9b 82 bd 8e 24 72 bd b1 ca 51 3b 85 c6 9e 3d
       -0.06377316 -0.059116893 0.0032011683 0.07752708
0003c0 ed e0 94 3c 89 59 c5 bd 4d 3f 0b be c9 c2 41 be
       0.01817366 -0.09636218 -0.13598366 -0.18921961
0003d0 fa b4 db bd 6a 85 8f 3f f2 5d d4 bc 0e 44 61 3e
       -0.10727878 1.121259 -0.025923703 0.21998617
0003e0 d3 36 37 3e e1 96 b7 3d 03 8f b1 3d 8c 30 15 bb
       0.17892008 0.08964325 0.086698554 -0.0022764532
0003f0 a6 f7 27 bf e9 67 59 3f 32 44 dd bc f9 cd db 3d
       -0.65612257 0.8492418 -0.027010057 0.107326455

bias f4 [64]
000000 fd c0 94 be d9 7b 4b be b0 df 41 3d 7b b4 8d 3e
       -0.29053488 -0.19871463 0.047332466 0.27676758
000010 9b 19 88 3e be 91 af 3d 01 87 0b 3f 40 84 45 3e
       0.26582035 0.0857272 0.54502875 0.1928873
000020 1d 22 13 3e 96 a9 a1 3d 3c 81 05 3e 46 35 21 3e
       0.14368482 0.07893674 0.1303758 0.15742978
000030 47 51 a4 bc b4 cf fe bd 16 2d a3 3c ed fc 05 3f
       -0.020058287 -0.1244196 0.01991896 0.5233906
000040 df 57 7a 3e aa 67 3a 3e e9 49 45 bc 18 96 37 be
       0.24447583 0.18203607 -0.012041547 -0.1792835
000050 3d 93 22 3e 6a b3 db bc fd 7a 1f 3d 6b 6a 63 bd
       0.1587648 -0.02681895 0.03893565 -0.05552141
000060 29 a1 81 3d a6 cb 26 3d 2c 60 91 3e e3 61 76 3d
       0.06329567 0.040721558 0.28393686 0.060151946
000070 76 e7 9c 3d fd 2f 9f 3b 26 2e 9f 3d a8 6e 4c 3e
       0.07661335 0.0048580156 0.07772474 0.19964087
000080 da ad 64 3c 65 d5 ba 3d cd cc cc 3d 4f 4f de 3d
       0.013957465 0.09122733 0.1 0.10854971
000090 95 66 0f bd 0e 97 c8 bd 44 61 d1 3e 5f af b5 3d
       -0.03500994 -0.097944364 0.4089452 0.0887134
0000a0 ae db 02 3e 6b fb 68 bb 5b e1 47 3e e8 d9 7f 3e
       0.12779114 -0.0035550247 0.1951956 0.24985468
0000b0 10 04 31 bc ea b9 dc bc 6a b1 ec 3b ad 9e 1e 3d
       -0.010804191 -0.02694412 0.007223298 0.038725544
0000c0 cd cc cc 3d 78 45 78 3e 85 9a 84 bd b4 86 06 3b
       0.1 0.2424525 -0.06474785 0.0020527067
0000d0 e1 65 54 3d 85 f1 53 3e 8f a5 5a 3e 96 7d a0 3d
       0.05185497 0.20697601 0.21352218 0.078364536
0000e0 68 38 4a 3b aa 8b 84 3e fc 4b 80 3d 06 8b aa 3d
       0.0030856375 0.25887805 0.06264493 0.08327298
0000f0 ba 4d 05 3e f8 69 c2 3c cd cc cc 3d 7c 44 8d 3d
       0.13017932 0.02373217 0.1 0.06897828

weight f4 [64, 2]
000000 35 f0 c6 bb d5 db 20 3d d6 4d 90 bc 6b c8 e4 3b
       -0.0060711154 0.03927215 -0.01761524 0.0069818995
000010 61 6e c4 3a 32 af e0 3d 5b d4 92 3d 4e 42 83 be
       0.0014986509 0.10970916 0.0716941 -0.25636524
000020 ad b7 a3 bc c0 ac 13 bc 23 f9 7b 3d 6a ee 66 3d
       -0.019985044 -0.009013355 0.061516892 0.056379713
000030 f6 3c b5 3c 5e 60 df bc ac e5 78 bc f3 0c 0b be
       0.022123795 -0.027267631 -0.015191477 -0.13579158
000040 40 d1 74 bc e6 55 2b b9 c5 18 8a 3c 34 37 0d be
       -0.014942467 -0.0001633983 0.016857514 -0.1379059
000050 65 37 3a 3b 37 2e 10 3b c3 4a ac 3b 17 32 f0 bc
       0.0028414365 0.0022000202 0.0052579357 -0.02932076
000060 14 2f f9 bd fe fa 12 3d a5 a6 8f bb 38 10 39 bc
       -0.121671826 0.035883896 -0.0043838792 -0.011295371
000070 a4 fd 0d 3b e7 f0 a5 3c ee 36 b2 3c f7 98 d5 3c
       0.0021666074 0.020256473 0.021754708 0.026073916
000080 33 2c 94 3c 2d c6 80 3c 6f c5 2c 3d 3b cf 04 3d
       0.018087482 0.015719498 0.042180475 0.032424193
000090 fd 58 94 bc 6f dd b8 bc ad dc 83 bc 09 6c c4 bc
       -0.01810884 -0.022566525 -0.016096437 -0.023977296
0000a0 84 fe 55 be d8 cf 5e 3e d5 11 9a be 8b 40 77 3e
       -0.20897871 0.21758974 -0.3009173 0.24145715
0000b0 a4 fc 09 bd d4 da 85 bd aa 2e ee 3c 2e d0 b5 3c
       -0.033688203 -0.06535879 0.029074986 0.022193994
0000c0 28 a8 22 3c 64 09 78 3c 4e d6 a8 3d 22 12 e3 bd
       0.009927787 0.015138958 0.082440004 -0.11087443
0000d0 a5 24 01 3e 19 0a 91 be 32 9f 6b 3d d3 7a fc bd
       0.12611635 -0.28328016 0.057524867 -0.12328114
0000e0 1f 17 fa 3b 1b c5 e6 bc 51 d6 41 bb 3d 50 8a 3a
       0.007632151 -0.02817016 -0.0029577205 0.0010552477
0000f0 a6 20 b6 bc 9e 69 87 3b c4 6a d3 bb be 66 d1 3b
       -0.022232365 0.0041324636 -0.0064519364 0.0063904217
000100 05 c0 04 3d f6 fa 15 bd 85 c6 28 3d b4 53 f0 3d
       0.032409687 -0.036616288 0.041204948 0.11734715
000110 c6 93 1b be 68 52 b5 bd ed b8 47 bc be 0c 62 bd
       -0.1519309 -0.08853608 -0.012190086 -0.055187933
000120 85 f2 06 bb cb 3a e0 ba 82 a9 87 bb 0d dc 23 3c
       -0.002059133 -0.0017107365 -0.00414008 0.010001195
000130 90 3f 5f 3b ea ae 9f bc da 60 5c bd 6a 3a eb 3c
       0.0034064986 -0.019492585 -0.053803302 0.028714377
000140 24 90 07 bd 2c 40 bf 3c bd 61 1e bb 94 d5 09 3d
       -0.033096448 0.02334603 -0.0024167143 0.03365095
000150 67 a6 3c bc 86 fa 77 bd 06 b7 5d 3b 41 50 2c 3a
       -0.011514283 -0.060541652 0.0033831014 0.0006573238
000160 c7 71 29 3c 6e 44 13 3c 83 f3 71 ba 57 fb 3c bd
       0.010342068 0.008988483 -0.00092297065 -0.046138134
000170 5f ae b1 be bc d9 f1 3b 22 01 6a be 59 a5 db 3c
       -0.34703347 0.0073806923 -0.22851995 0.026812242
000180 f5 66 04 bd d7 20 a4 bb eb 3c 14 3c 47 4b fd bc
       -0.03232475 -0.0050087976 0.009047727 -0.030919684
000190 de 6c 25 bf 41 be 4b 3b a5 9a 91 bd 20 f4 4e 3e
       -0.64619243 0.0031088742 -0.07109574 0.20210314
0001a0 0c db 70 bd 48 f6 c7 bd 6a 83 2c 3c 07 82 71 3d
       -0.05880265 -0.09763771 0.010529378 0.058961894
0001b0 6d a7 0a bc 91 d4 42 bb df b5 36 bd 05 4f 82 bd
       -0.008462769 -0.002972875 -0.04460704 -0.06362728
0001c0 e8 3d 47 3d 1f 8e ad bc d2 25 c6 3d 4c b9 3a 3e
       0.048643023 -0.021185933 0.096751824 0.18234748
0001d0 20 be 9e ba dd 99 a1 3b 7f d1 b4 3d df 5e b8 bd
       -0.0012111105 0.004931672 0.08829021 -0.0900247
0001e0 0b 19 89 bb 14 e6 58 bc 5d b3 13 be 21 fe 5d bd
       -0.0041838936 -0.013238449 -0.1442389 -0.054197434
0001f0 27 6e a7 3c 14 d6 72 3d 3e e1 28 3e 7f 49 3a bd
       0.020438267 0.059286192 0.16492173 -0.045480248

bias f4 [64]
000000 fd c0 94 be d9 7b 4b be b0 df 41 3d 7b b4 8d 3e
       -0.29053488 -0.19871463 0.047332466 0.27676758
000010 9b 19 88 3e be 91 af 3d 01 87 0b 3f 40 84 45 3e
       0.26582035 0.0857272 0.54502875 0.1928873
000020 1d 22 13 3e 96 a9 a1 3d 3c 81 05 3e 46 35 21 3e
       0.14368482 0.07893674 0.1303758 0.15742978
000030 47 51 a4 bc b4 cf fe bd 16 2d a3 3c ed fc 05 3f
       -0.020058287 -0.1244196 0.01991896 0.5233906
000040 df 57 7a 3e aa 67 3a 3e e9 49 45 bc 18 96 37 be
       0.24447583 0.18203607 -0.012041547 -0.1792835
000050 3d 93 22 3e 6a b3 db bc fd 7a 1f 3d 6b 6a 63 bd
       0.1587648 -0.02681895 0.03893565 -0.05552141
000060 29 a1 81 3d a6 cb 26 3d 2c 60 91 3e e3 61 76 3d
       0.06329567 0.040721558 0.28393686 0.060151946
000070 76 e7 9c 3d fd 2f 9f 3b 26 2e 9f 3d a8 6e 4c 3e
       0.07661335 0.0048580156 0.07772474 0.19964087
000080 da ad 64 3c 65 d5 ba 3d cd cc cc 3d 4f 4f de 3d
       0.013957465 0.09122733 0.1 0.10854971
000090 95 66 0f bd 0e 97 c8 bd 44 61 d1 3e 5f af b5 3d
       -0.03500994 -0.097944364 0.4089452 0.0887134
0000a0 ae db 02 3e 6b fb 68 bb 5b e1 47 3e e8 d9 7f 3e
       0.12779114 -0.0035550247 0.1951956 0.24985468
0000b0 10 04 31 bc ea b9 dc bc 6a b1 ec 3b ad 9e 1e 3d
       -0.010804191 -0.02694412 0.007223298 0.038725544
0000c0 cd cc cc 3d 78 45 78 3e 85 9a 84 bd b4 86 06 3b
       0.1 0.2424525 -0.06474785 0.0020527067
0000d0 e1 65 54 3d 85 f1 53 3e 8f a5 5a 3e 96 7d a0 3d
       0.05185497 0.20697601 0.21352218 0.078364536
0000e0 68 38 4a 3b aa 8b 84 3e fc 4b 80 3d 06 8b aa 3d
       0.0030856375 0.25887805 0.06264493 0.08327298
0000f0 ba 4d 05 3e f8 69 c2 3c cd cc cc 3d 7c 44 8d 3d
       0.13017932 0.02373217 0.1 0.06897828

weight f4 [64, 64]
000000 ba b2 eb 3e 46 f0 2f 3f 4d 96 09 3e 48 a6 b3 bf
       0.46034795 0.68726003 0.13436241 -1.403512
000010 c9 9a 50 3d 70 f4 30 3c ef 41 a2 3e 5c d6 f0 bf
       0.050928865 0.010800466 0.31690928 -1.8815417
000020 7e de 9d bf b2 ac 56 3e 9b 3c e1 be c4 f4 0f bf
       -1.2333524 0.20964316 -0.4399155 -0.5623286
000030 4f 35 ae be f5 60 1e 3f c6 7d a7 3e 5b b0 6e bf
       -0.34025046 0.61866695 0.32713145 -0.9323785
000040 71 78 cd bf 55 8f 9c bf 2d 84 98 be 5c c2 04 3f
       -1.6052381 -1.2231241 -0.29788342 0.5185907
000050 5a 15 5a bf 9a a7 e4 ba c3 8f f2 3d 87 61 b3 3d
       -0.8518883 -0.0017444969 0.118438266 0.08758836
000060 49 b8 c9 be f9 15 d0 3b df 8d 2c bf 34 94 0a bd
       -0.3939841 0.0063502756 -0.6740398 -0.033832744
000070 04 b9 81 3d 04 a1 85 3f 02 61 e6 3d 47 72 ab bf
       0.06334117 1.0439763 0.112489715 -1.339425
000080 74 f9 0f 3f 2d a4 9b bf 1f 4f ab 3d 3e a4 15 ba
       0.5624001 -1.2159477 0.083647005 -0.0005708373
000090 a5 03 0d be a3 ba 7b 3f d1 84 c0 3e 43 0b ed 3d
       -0.13770922 0.9833166 0.3760133 0.115744136
0000a0 8f 7f 2b be e0 db b8 3d ec 62 77 bf 20 32 b4 bf
       -0.16747878 0.09026313 -0.9663532 -1.4077797
0000b0 c4 20 78 be 9f d3 30 3e db a4 72 3d 6d 4f 8d be
       -0.24231249 0.17268227 0.05923925 -0.2759966
0000c0 bf df 22 3d a7 34 bb bf da e8 6f bd d9 38 d2 bf
       0.039764162 -1.4625443 -0.058571674 -1.6423599
0000d0 9a 15 5b bd 4f e0 b7 be c5 c6 9f bf 81 8b 48 be
       -0.053487398 -0.3591332 -1.2482535 -0.19584467
0000e0 34 5a 03 bc 1d 9d 05 c0 30 34 36 bf e7 be 25 3d
       -0.008017112 -2.0877144 -0.7117338 0.04046526
0000f0 2c 88 76 bf c7 28 b1 be 1b 5b 77 3d b5 ec 0e be
       -0.9630153 -0.34601423 0.06038962 -0.13957484
000100 5b f0 74 3f ae bf a5 3f 01 46 45 3d e3 bd 6f bf
       0.95679253 1.2949121 0.048162464 -0.9364912
000110 1a 9d d3 be bd 6e 07 3d 37 99 b7 3f 8e f0 94 bf
       -0.41330796 0.033064593 1.4343632 -1.1635911
000120 41 7e de bd 56 99 92 3d 57 36 2f be e3 2a 62 3e
       -0.10863925 0.07158153 -0.17110573 0.22086672
000130 26 f9 ad 3f b4 69 8f 3f 35 0d 94 c0 00 dd b0 bf
       1.3591659 1.1204133 -4.626612 -1.3817444
000140 20 ca bc bf 95 49 98 bf 10 07 3d 3f 3e 3f aa 3f
       -1.4749184 -1.1897455 0.738389 1.330055
000150 2c 1b 84 bf 2c a1 0f bd 18 a1 4a 3d 0d 92 91 c0
       -1.0320792 -0.035065815 0.049470037 -4.5490785
000160 ad f7 0b c1 9c 6a 03 3e be 33 15 c0 87 0b 00 3e
       -8.747968 0.12833637 -2.331283 0.12504397
000170 76 0c 11 c0 fc 11 8b 40 5d 8d 11 40 33 2c 61 c0
       -2.2663856 4.3459454 2.2742531 -3.5183227
000180 a5 b3 91 bc 33 5c f2 3e d1 c3 c2 bd 3e 8e 21 3f
       -0.017785857 0.47335967 -0.09510005 0.6310767
000190 9e 1b 25 c0 22 f3 e3 3f 77 1b 34 3f 90 de c9 bc
       -2.5798106 1.7808573 0.7035441 -0.024642259
0001a0 48 92 c7 3e 8a 3e 6f c0 ad 91 03 c0 b7 af 2d bf
       0.3897879 -3.738192 -2.0557663 -0.67846245
0001b0 20 71 36 3f e8 34 bc bc 74 dc 66 3e 81 97 df be
       0.71266365 -0.022974446 0.22545034 -0.43670276
0001c0 ef 0b ab 3d e3 74 77 3d 4e e6 1d bf a5 d4 98 3f
       0.083518855 0.060414206 -0.6167954 1.1939894
0001d0 f6 33 99 bd c0 73 4d bf 9a f2 64 c0 c5 ad 06 be
       -0.07480614 -0.80254745 -3.5773072 -0.13152225
0001e0 1b 2a 62 3e 56 4b 9f bf 5f 67 28 c0 6a 23 da bd
       0.22086374 -1.2444866 -2.6313093 -0.10651286
0001f0 af 10 a5 bf 01 0a 4f 3d 28 db 32 3e c3 28 e6 3d
       -1.2895716 0.05054665 0.17466414 0.112382434
000200 90 fd c8 3e a7 db b4 3c f6 dd 9e 3c f5 54 87 be
       0.39255953 0.022077395 0.019392949 -0.26432005
000210 99 39 d5 3d 97 ae b5 3d d2 50 6a 3f 44 1b 7b bf
       0.104113765 0.08871191 0.9152957 -0.9808848
000220 36 a2 10 bf 07 5a 2e 3e cf 11 36 bf c5 a6 1c bf
       -0.56497514 0.1702653 -0.71120924 -0.6119197
000230 7d 76 8d 3f 88 dd 48 3f f6 51 94 bd 0f 00 3a 3f
       1.1051785 0.7846303 -0.07242195 0.7265634
000240 d5 e2 8c bf d3 86 fa be ef e7 30 bf bf a7 3c 3f
       -1.1006724 -0.48930988 -0.691039 0.7369346
000250 7f 1d a0 be 97 32 39 bd 91 bc d7 39 96 38 9f be
       -0.31272504 -0.04521426 0.00041148489 -0.3109786
000260 1c 80 0e 3e 7f a0 38 3e 12 ee 55 bf 15 1f 04 be
       0.13916057 0.18029974 -0.8356639 -0.12902482
000270 c4 2a 07 3e cc 07 8e 3f 6f bc b1 3f 7c 25 0e 3e
       0.13199908 1.109613 1.388563 0.13881487
000280 0a fa 6f 3e a5 b5 80 bf f5 ea 07 3e d5 88 82 be
       0.23435226 -1.0055434 0.13273223 -0.2549502
000290 9d d1 8f be 28 04 41 3f 2a d4 61 3f ea be d7 bd
       -0.2808961 0.75396967 0.8821436 -0.10534461
0002a0 f1 43 c3 bd e5 ba 15 be 66 4d 21 3d e8 e0 30 bf
       -0.09534443 -0.14622076 0.039380454 -0.6909318
0002b0 dd cd 19 bf ae 4e a3 3d 6d 72 03 3e fc 54 84 3e
       -0.6007975 0.07973991 0.12836619 0.25846088
0002c0 9b 96 6b be 83 46 80 bf 64 7e 04 3d 40 4e b4 bf
       -0.2300667 -1.0021518 0.032347098 -1.408638
0002d0 4d f2 82 be bc 43 71 be a1 36 46 bf c6 1c 1a be
       -0.25575486 -0.23560995 -0.7742711 -0.15050039
0002e0 34 a5 83 bd c9 f4 41 bf 65 e9 87 bf 6f f2 a8 3d
       -0.06427994 -0.7576414 -1.0618101 0.082493655
0002f0 88 49 b7 be 5d 5d 19 bf a2 21 d6 bd f8 79 37 bd
       -0.35798287 -0.59908086 -0.10455634 -0.044794053
000300 8c e8 f4 3d 20 5e b5 bd 42 6a 59 bd eb de 73 bf
       0.11958417 -0.088558435 -0.05307985 -0.9526202
000310 b6 f2 26 3e 12 6d de bb 53 3a 74 3d 81 db 43 bf
       0.16303524 -0.0067879045 0.059625935 -0.7650681
000320 de e1 1e bf ab 6e f4 3c fe 84 ae c0 7e 74 9e bf
       -0.62063396 0.029837927 -5.4537344 -1.23793
000330 0f bc 3c 3d bf 64 aa 3e d6 a7 1a c0 af 11 a9 bd
       0.046077784 0.33279988 -2.416494 -0.08255326
000340 f8 05 42 bf d3 62 67 bf 65 0a 0f c0 52 00 6d 3e
       -0.7579036 -0.9038517 -2.2350094 0.23144653
000350 ac bc 80 bf 79 f7 d2 3c ef a3 33 3e 64 9c ff bf
       -1.0057578 0.02575277 0.17543004 -1.9969602
000360 e3 ae e5 bf 46 8b 2b be fe 08 99 bd 8f 9e aa 3d
       -1.7943996 -0.16752347 -0.07472418 0.08331024
000370 a9 ff c7 bf e2 0a df c0 d8 bc 3c be fd 88 0c bf
       -1.5624896 -6.9700785 -0.18431413 -0.5489653
000380 d3 b2 7b c0 9b ec 65 bf 21 11 5f 3d f5 f1 0a be
       -3.9327896 -0.89814156 0.054459695 -0.13568862
000390 f7 0a a4 bf 6d 7c 12 bd 51 8a 56 3b 41 27 47 be
       -1.2815846 -0.035763193 0.0032736252 -0.19448568
0003a0 4e f0 13 3c 5b b0 ee bf fe 00 ab be df 91 bc be
       0.009029461 -1.864757 -0.33399194 -0.3683004
0003b0 3d aa 14 c0 b5 1b 03 3e 04 30 03 3e f8 16 3b 3e
       -2.3228905 0.12803538 0.12811285 0.1827048
0003c0 c6 b1 16 be e7 5b a9 bf 13 ed 6a be 23 3d 00 c0
       -0.14716253 -1.3231171 -0.22941999 -2.0037315
0003d0 29 ba dd 3b c9 d3 d3 be 8d 95 1f bf b7 80 20 be
       0.006766577 -0.41372517 -0.6233757 -0.15674101
0003e0 6c 12 7a bd c5 4e 81 bf 14 bb 83 c0 fe ea 1d 3d
       -0.061052725 -1.0102164 -4.1165867 0.038554184
0003f0 7e 4c 8b bf 50 6e b1 c0 e4 f2 7b 3d 3a a3 5f 3b
       -1.0882719 -5.544716 0.061510935 0.003412439

bias f4 [64]
000000 17 34 3f 3d 7e 36 a0 3e 02 4f 50 bd 6f b2 a2 3e
       0.046680536 0.31291574 -0.050856598 0.3177676
000010 2b 91 e8 bd 9f c3 a2 bc 43 d2 69 bf bb b9 21 be
       -0.113558136 -0.01986867 -0.9133646 -0.15793507
000020 5b 62 82 bd 21 84 db 3e 66 95 2e 3d 89 ef d0 3e
       -0.06366416 0.42874244 0.042622946 0.4080775
000030 eb 26 ae 3e a7 65 b7 3e a9 ff b4 3b 3d a8 0c ba
       0.34014067 0.35819742 0.005523641 -0.00053656456
000040 fe cc 93 3e e5 14 87 bd 7b 66 7f 3c 8d 91 0f be
       0.28867334 -0.06595782 0.015588398 -0.14020367
000050 d5 6b 8b be 90 7a 49 3c 57 77 a0 be f4 2a 8e 3d
       -0.27230707 0.012297288 -0.3134105 0.069417864
000060 fa 92 d0 bd 65 52 03 bd 2a 48 d7 be f7 fb b2 3e
       -0.101842836 -0.032061 -0.42047244 0.3495786
000070 3e d9 c6 3e 35 1b 1a 3d 12 2b 1b 3f b9 94 17 3d
       0.38837618 0.037623603 0.60612595 0.037007067
000080 64 25 b1 3e 66 26 69 3e de a7 17 bc 4a d7 e1 3e
       0.3459884 0.22768554 -0.009256331 0.44109565
000090 82 fc 63 3d 78 c3 4a 3e 4d f2 de 3e 2c 8b cf 3e
       0.055660732 0.19801128 0.43544236 0.40535867
0000a0 76 3e 16 bf 2f b3 25 bd 76 8a 95 be 46 1b fa 3e
       -0.5868906 -0.040454086 -0.292072 0.48848933
0000b0 74 c4 03 3d f7 09 a0 be 2b df 74 3e c5 9e 15 3c
       0.032169774 -0.31257603 0.23913257 0.009132092
0000c0 9c 84 72 bf 51 bf c9 be dc f5 8a bd 9c ee f5 3e
       -0.94733596 -0.39403775 -0.06785175 0.48033607
0000d0 e5 db 03 be 2f a5 38 3d 5d 43 95 3c fc 22 ba be
       -0.12876852 0.045079406 0.018220598 -0.36354816
0000e0 38 7b bc b9 0b 6e e5 bc 4f 2a 34 3d e5 de ca 3e
       -0.0003594996 -0.028006574 0.04398566 0.3962318
0000f0 20 2b ca 3d c8 af aa 3e 66 ca 21 3d 33 11 d1 3e
       0.09871507 0.33337235 0.039499663 0.40833434

weight f4 [1, 64]
000000 9d 24 17 c0 dd 89 9c c0 09 14 db bf 81 af db 40
       -2.3616097 -4.891829 -1.7115489 6.865174
000010 bc 81 88 c0 ff 95 a7 3c 4a 60 60 c0 12 5d 00 40
       -4.2658367 0.020457266 -3.505877 2.0056806
000020 0f e0 70 40 11 cc 16 3f 5f 0f 3f 3c 28 0f cd 3e
       3.7636755 0.5890513 0.01166138 0.40050626
000030 49 b1 fb 3f e0 51 cf 40 f6 f3 63 c0 74 4d 02 3d
       1.9663478 6.4787445 -3.5617652 0.031812146
000040 8e 3c a7 3f d3 fc f7 bf d7 2c bb bb 8f 23 32 3e
       1.3065355 -1.9374031 -0.0057121324 0.17396377
000050 87 f3 3c c0 55 6b 89 3c ae a8 ad bf b2 28 6c c0
       -2.9523637 0.016774813 -1.3567102 -3.6899838
000060 57 c9 3c c0 96 78 a5 c0 33 05 74 c0 2e 24 a8 40
       -2.9497888 -5.17097 -3.8128173 5.2544165
000070 78 28 8f 3f 66 78 9e 3c b1 5b 23 40 73 7d c6 bf
       1.1184225 0.01934452 2.5524714 -1.5507034
000080 07 df 82 3e 04 05 69 40 67 c4 bb 3c 1e 54 73 3f
       0.2556078 3.6409311 0.0229208 0.9505023
000090 8c 79 fa 3c f5 c2 96 c0 14 bd f0 3e d6 b5 47 3f
       0.030575536 -4.7112985 0.47019255 0.78011835
0000a0 69 a0 12 c0 ca c9 dd ba 82 ef e1 bf 7e d8 b9 3e
       -2.2910407 -0.00169211 -1.7651217 0.36297983
0000b0 38 6d cf 3b a4 a3 83 40 eb d7 70 40 36 9b a6 c0
       0.0063301586 4.1137257 3.7631786 -5.2064466
0000c0 35 b7 f1 bf ad 85 9e bf 16 ef a4 c0 af d3 0f 3f
       -1.8884035 -1.2384545 -5.1541853 0.5618238
0000d0 e7 7a 28 c0 b7 5f 32 3c 78 1c 38 3d 5e 99 0b c0
       -2.6325014 0.010887078 0.044949025 -2.1812358
0000e0 cd 3c 81 bc 6b f7 71 bc 84 ae f0 3b 5e 8a 93 3f
       -0.015776062 -0.014768462 0.0073450226 1.1526601
0000f0 be d2 a0 c0 b6 cc c2 3e 78 ff c0 3b 31 19 01 3f
       -5.0257254 0.38046807 0.0058898292 0.50429064
