强化学习TD3_py/run/critic_1_target.pt (torch, 23391 bytes, 7 tensors)

weight f4 [64, 7]
00000000: aa12 62bf e7fb b8bf d2c3 5bbe dbe1 6cbe
00000010: 6e13 97be 65d5 02bf f35d e0bd 096f 50bf
00000020: a57a 0e3f 8db0 0ebe ff5e 2cbe 226c 54be
00000030: 98a5 433e 85a3 8fbd bece 103f 003a 47bf
00000040: 6c38 7cbd 1a5a dabd e21d e03c 4329 68be
00000050: d5f8 80bd 580f 923e ca19 e53f 4677 4a3e
00000060: d3ef 823c 5ecf a13e 6ab1 233e 9cd5 223d
00000070: 2170 b43e 112d 13c0 be73 cebc 4347 a9be
00000080: 75af f3bd 1d8a 9bbe 0d91 45be ff53 323f
00000090: ec7f 07bf a1e7 cebd 72a5 6b3c 702f 3cbd
000000a0: 6974 593d 366d 9dbe 4d07 d9bf f5f2 df3f
000000b0: 6dfe 563d 9c1e bfbd 11e3 bcbd c422 6ebd
000000c0: 4e13 debd 2a37 bd3f 5694 b43f 064a 4dbd
000000d0: f45b 9a3e f91e b73d 783c 5b3e b0df 0d3e
000000e0: e410 1a3f 5c5a 8040 3883 483e 94be 6d3e
000000f0: 52cb fa3e aaad b03d d01c 663e 5ace d03d
00000100: 8f76 39bf ca7d d9bd 4afa 57be 05fa 0bbe
00000110: 23cd e1bb 5773 a9bd 499a c03f 2459 76bf
00000120: cdcd 8e3d 37e0 8c3d 52de a5bb a68f 333d
00000130: b22f 9e3b 7a1c 513f d472 8ebf 96ab 10be
00000140: a3b1 f03c e09c 36be 8d4c 0ebe 0874 b2bd
00000150: 1a4d 583f 6ea5 a0bf 4563 08be 3b58 f83c
00000160: ff74 a0bd 89fe 4fbd 77f2 25be bd5b 863d
00000170: 53e7 6c3d b2c4 d2bc 4930 4fbd 9154 47be
00000180: ac9f 70bd 1e10 103d 4056 bb3e 4b53 f7be
00000190: 9c93 78bd 9928 c3bd 6cea 883d b9a8 c3bd
000001a0: 8368 6bbd 20d0 e23f b291 d03f 8e37 6c3e
000001b0: 5f20 973e 869e 213e 3173 5b3e f482 8b3e
000001c0: cf4c a83c d512 9e3e 66e3 a13b ee37 13be
000001d0: 5b4c 6ebc b86c 34be fd7c 0ebc 8d84 8d3d
000001e0: 7759 32be 5ca0 79be 1f09 a6be 75ef 80be
000001f0: 367e 96be 1630 16be f64b 2ebb feb6 153f
00000200: 6ad8 d9bd 9eeb 93bd 91c3 41be 9840 bfbd
00000210: 8e69 9ebd c1df 1340 59fd 2140 caea 313e
00000220: b917 d13e 9b53 943e e8cc 0a3f ad54 3d3e
00000230: dc15 753c 6560 893d c649 1fbe 0f3b acbd
00000240: bd5d 0ebe 9ec6 ae3d 18bc 39bb d267 e23d
00000250: 0e9b 9c3d 553a 8dbd 0d32 88bd f62b 923b
00000260: 1e8a 1dbe f419 fcbd 2b62 f4bc d426 0abd
00000270: 33bf 6ebc 8892 48bd 0509 96bd a171 d1bd
00000280: 8157 40bd b4da 0140 183e b63f 1f42 4e3e
00000290: 603d 913e eeaf e83d 0401 133e de47 793e
000002a0: b453 82bf 15cd 99bf adea 89be b89d b0be
000002b0: 61c1 4bbe 1e55 91be 9dc4 8dbe a9d7 7040
000002c0: 75bd 673c bae5 a23e a019 c03e 1327 693e
000002d0: fe7b e33e 8ffc d33e 1dae 97ba d1b8 483e
000002e0: d13b c8bd 15b7 8cbe 2d62 8dbd 3ae9 e43d
000002f0: cb5c ebbc 7d55 063d 34c4 02bf 1e38 1abe
00000300: c2e6 d7bd d01b c53d 1363 e8bd 6da4 03be
00000310: c87f e03e ed8b b03f d480 103e 78f5 e93c
00000320: 6e72 873d ca33 3a3d 5132 99bd 3d6d 013e
00000330: b88b 4cbf f143 43bd e1ea c2bd e01e 32be
00000340: fd3b 04be eff9 2dbe 4fe6 1c3f d198 5b40
00000350: 810a e93d e334 7a3e 0fe1 633e 6877 cc3d
00000360: b254 3d3e 4d15 d63f 33cc 583f 7258 e1bc
00000370: f0d0 063e 9503 303d b730 3d3e 7fa5 3b3d
00000380: ea82 5c3f 9440 9b3f 0f7b 1d3e 2f9e 4a3e
00000390: 9ddb 203e 7a03 873e b711 9d3d 6640 cf3f
000003a0: aac9 9dbf 4e21 733c 4f6b 223d 4c88 b13b
000003b0: e6b9 f9bd 3493 a53d af15 29bf 8fb9 cc3f
000003c0: c523 3ebc 4b73 683e 1323 183e c89b 1cbd
000003d0: 46bb c2bc 84e1 833e 420b 583f 3815 483d
000003e0: 0216 003e 4286 d6bb 4984 9a3e 91da a73d
000003f0: 8965 92bf 3983 1240 45eb 76bc 32a4 943d
-0.8830973 -1.4451874 -0.21461418 -0.23133032 -0.2950701 -0.51106864 -0.109554194 -0.81419426
0.5565589 -0.13934536 -0.16833113 -0.20744374 0.19106138 -0.07013611 0.56565464 -0.77822876
-0.061577246 -0.10661717 0.027358 -0.2267199 -0.06297461 0.2852733 1.7898495 0.19772062
0.015983498 0.3160352 0.15985647 0.039754495 0.35241798 -2.2996256 -0.025201675 -0.3306218
-0.118987 -0.3037881 -0.19293614 0.6965942 -0.5292957 -0.101027735 0.014382707 -0.045943677
0.053089533 -0.30747384 -1.6955353 1.749602 0.052488733 -0.0933201 -0.09222997 -0.058138624
-0.10843526 1.478246 1.4107769 -0.050119422 0.3014828 0.089414544 0.21409786 0.13854861
0.60182023 4.01103 0.19581306 0.23217231 0.48983246 0.08626874 0.22471929 0.101956084
-0.7244653 -0.106196955 -0.21091571 -0.13669594 -0.0068909093 -0.082739525 1.5047084 -0.9622977
0.06972847 0.06878703 -0.005061903 0.043838166 0.004827463 0.81684077 -1.1128793 -0.14127955
0.029381579 -0.1783328 -0.1389639 -0.087135375 0.8449265 -1.2550485 -0.13319118 0.030315509
-0.07834815 -0.050779853 -0.16205774 0.065604664 0.057837795 -0.025728557 -0.050583158 -0.19465853
-0.058746025 0.03517162 0.3658924 -0.48305735 -0.060687646 -0.09529228 0.066853374 -0.09553666
-0.057472717 1.7719765 1.6294463 0.23068067 0.29516885 0.15783128 0.21430661 0.27248347
0.020544438 0.30873743 0.004940438 -0.14376804 -0.014544572 -0.17619598 -0.008696792 0.06910048
-0.1741694 -0.24377578 -0.32428834 -0.2518269 -0.29393166 -0.14666781 -0.002659557 0.5848235
-0.10636981 -0.07222675 -0.18922259 -0.09338492 -0.07734977 2.3105319 2.531088 0.17374721
0.4083841 0.28970036 0.5421891 0.18489332 0.014958825 0.06707839 -0.15555486 -0.08409702
-0.13902946 0.08533977 -0.0028340872 0.110549584 0.07646762 -0.068958916 -0.066501714 0.004460807
-0.15384719 -0.12309638 -0.029831966 -0.033728436 -0.014571953 -0.048967868 -0.07325939 -0.10226751
-0.04695845 2.0289736 1.42377 0.2014241 0.28367138 0.11361681 0.14355856 0.24343821
-1.0181794 -1.2015711 -0.26936856 -0.3449533 -0.19897987 -0.28385252 -0.27689067 3.7631629
0.014144291 0.31815892 0.3751955 0.22768812 0.44430536 0.41403624 -0.0011572276 0.19601752
-0.09777034 -0.2748343 -0.06903491 0.11177297 -0.02873077 0.03279637 -0.5108063 -0.1506047
-0.105420604 0.096244454 -0.11347022 -0.12855692 0.4384749 1.3792702 0.14111644 0.028559431
0.066136226 0.045459546 -0.074803 0.12639327 -0.79900694 -0.047672216 -0.09517456 -0.1739459
-0.12913509 -0.16989873 0.61288923 3.4312022 0.113789566 0.24434237 0.22253822 0.099837124
0.1848934 1.672525 0.84686583 -0.027507994 0.13165641 0.042972166 0.18475614 0.045812126
0.8613726 1.2129083 0.15378974 0.19786905 0.15708776 0.2636984 0.076693945 1.6191528
-1.2327168 0.014839483 0.03965312 0.005417859 -0.121936604 0.080847174 -0.6604871 1.5994128
-0.011605208 0.22700231 0.1485713 -0.038234502 -0.02377094 0.25757992 0.8439218 0.04884836
0.12508395 -0.0065467665 0.3017905 0.08195985 -1.1437236 2.2892592 -0.015070741 0.0725788

bias f4 [64]
00000000: e0c3 3cbe 6900 4bbd ded0 a53b 87f0 6c3e
00000010: d8a6 22be d784 bd3c f12b 4b3d 348a 313e
00000020: c4b4 ae3e 6897 36bc 9d24 df3d 7ede 9dbc
00000030: cacf 5cbd cdcc cc3d 34e9 003c 4a38 8d3e
00000040: 6526 9b3c c397 00be f276 603d 16ea d63e
00000050: 5005 4f3d cdcc cc3d a78c bd3d b3e5 8f3e
00000060: 0efe 18be e71e ea3e fbaf 793d dd06 84bb
00000070: 26e6 d83d 3f90 29b9 4a09 853e ae4b 1e3e
00000080: 1e51 913e e058 0f3e 0ec0 1c3e 7ca8 553e
00000090: 87a3 803d a1ba d1bb a896 b3bc 9185 513e
000000a0: 018f 563e 83f1 143e e2bf 5ebd a6d5 9cbd
000000b0: 617b 163d 6073 8f3d 005a 4a3d 79eb f43d
000000c0: e755 2abe d377 b13d 373c 21be cdcc cc3d
000000d0: 5988 4bbc 9a5c 7d3e 8536 84bc 12fb a13e
000000e0: 4f28 633d 79f6 683e 3f2a ba3d ca77 fa3d
000000f0: d22c 823d 0b46 583c 00d3 babd e82b cb3d
-0.18434095 -0.049560938 0.0050602993 0.23138629 -0.15883958 0.023134632 0.049602453 0.17337877
0.34122288 -0.0111444965 0.10895655 -0.019271132 -0.0539091 0.1 0.0078681 0.27582008
0.018939206 -0.12557893 0.054800935 0.41975468 0.050542176 0.1 0.09255343 0.28104934
-0.14940664 0.45726702 0.060958844 -0.0040291385 0.10590772 -0.00016170832 0.2598365 0.15458557
0.283822 0.13998747 0.15307638 0.20865053 0.0628119 -0.0064004217 -0.021922424 0.20461108
0.20952989 0.14545254 -0.054382212 -0.07657938 0.036738757 0.07004428 0.049402237 0.11958975
-0.16634332 0.08665433 -0.15745626 0.1 -0.0124226445 0.24742356 -0.016139278 0.31636864
0.055458363 0.22750272 0.09090089 0.12229879 0.06356205 0.013200293 -0.09122276 0.09920484

weight f4 [64, 2]
00000000: 90bf b1bc 31e6 423d cbe8 75bc 05eb 1a3d
00000010: 8a3c 67bc 4991 5c3d 370e a63c 8e67 72bd
00000020: 4031 17bc ea39 1e3c db8d 61bd f31e 77bd
00000030: 9be9 7e3a 589c 783c 3997 723b 9130 7b3c
00000040: a350 883b e411 7cbd 7c1e 0b3d 0112 563c
00000050: e868 61ba baeb 41bb c333 793c 9632 a0bd
00000060: 55c2 07bd adc7 93bd 04c9 8fbc f449 0d3c
00000070: e173 5a3c 1314 f13a 9fa6 c13c 8352 52bd
00000080: a35c fa3d f241 edbd 151c 91bf 0852 c03e
00000090: 0146 5ebe a741 bd3d 7e36 083d 9b6b 0bbd
000000a0: 076e b33d 52bd 5a3d 3213 61bd ff77 acbd
000000b0: 1f41 a53c 3d6e 05bb e7b8 073c d683 fdbc
000000c0: dd97 09bc 3e43 a13c 349d 9bbc a629 a0bc
000000d0: d48a 0a3d 7462 0bbe be16 9e3c fd68 093b
000000e0: 4e8d cc3c 5106 483e 066c 92bb 4d88 833c
000000f0: eedc 493b a7d8 2bbc 1153 ab3d c282 9fbe
00000100: d5d5 503c 6fa2 cd3b e4aa 53bb 2ebf 5bbb
00000110: 6aab 56bc 6a56 7b3d 4904 38bc d81d 083e
00000120: 2ce9 8ebc 1d68 74bb 746c a53b cf18 9b3a
00000130: 8c51 89bd 6076 cbbd 738b c03c 9ae5 cc3c
00000140: 5152 db3c 9fe9 6b3d 7214 0abc 2a04 9a3b
00000150: eac4 6f3c 8ca9 f23b b0e1 493e dfdd a73b
00000160: 4cf6 8ebb 7532 d6bb 3b23 c3bc 6ed7 1bbd
00000170: a796 33be 0c59 8e3b ae0a 15bd 3758 2d3e
00000180: f0ea bcbc b82f ba3c 4c49 d5bc 6360 66bb
00000190: 4ac7 53bc facf e33c 13e1 6cbb 4b5a 613d
000001a0: 37c6 bc3c 65cd 94bd 8207 4abe c6f6 183d
000001b0: c8c3 c5bd 1928 5a3e e7ce 9eba 23ea 173d
000001c0: c312 a1bc d4a1 a23c f0c8 39bc 24e6 a4bd
000001d0: 3dde 03be df40 24be d970 78bc a205 54bc
000001e0: ddc3 a53c a7e1 3a3d 5bf0 023b 0a06 25bb
000001f0: 90bf 31bd 45e7 0b39 1eaa 663e cdaf 78be
-0.02169779 0.04758281 -0.015009115 0.03782179 -0.014113555 0.053849492 0.02027045 -0.05918079
-0.009228051 0.0096573625 -0.055066925 -0.06033225 0.0009724141 0.015173994 0.0037016405 0.015331403
0.0041600033 -0.0615405 0.03396462 0.013065816 -0.0008598701 -0.0029589967 0.015210095 -0.078221485
-0.033144314 -0.072158195 -0.017551906 0.008623589 0.013333292 0.0018392823 0.023639021 -0.05134822
0.122247 -0.11584844 -1.1336695 0.37562585 -0.21706392 0.09241038 0.033255093 -0.034038167
0.087612204 0.053403206 -0.054949947 -0.08421325 0.020172654 -0.0020359897 0.00828383 -0.030946653
-0.008398023 0.019685384 -0.018995859 -0.01955111 0.033823803 -0.13611776 0.019297954 0.002096712
0.024969723 0.1953366 -0.004468444 0.016056204 0.003080185 -0.010488666 0.08365453 -0.31154448
0.012746294 0.006275467 -0.0032297904 -0.00335307 -0.013102392 0.061361708 -0.01123149 0.13292634
-0.01744517 -0.0037293502 0.005048329 0.0011832955 -0.06705007 -0.099346876 0.023503995 0.025011826
0.02677265 0.057595845 -0.008427726 0.0047002034 0.01463435 0.0074054655 0.19714999 0.0051228846
-0.004362857 -0.0065367767 -0.02382051 -0.038047247 -0.17537938 0.0043441113 -0.036387138 0.16928183
-0.023061246 0.022727832 -0.026035927 -0.0035152666 -0.012925932 0.027809132 -0.0036144897 0.05501775
0.023043735 -0.072657384 -0.19729427 0.037344716 -0.09656483 0.21304359 -0.0012116105 0.037088525
-0.019662267 0.019852556 -0.011339411 -0.08051708 -0.12877746 -0.16040371 -0.015163624 -0.012940796
0.020234996 0.045625355 0.0019979689 -0.0025180602 -0.04339558 0.00013342228 0.22525832 -0.24285813

bias f4 [64]
00000000: e0c3 3cbe 6900 4bbd ded0 a53b 87f0 6c3e
00000010: d8a6 22be d784 bd3c f12b 4b3d 348a 313e
00000020: c4b4 ae3e 6897 36bc 9d24 df3d 7ede 9dbc
00000030: cacf 5cbd cdcc cc3d 34e9 003c 4a38 8d3e
00000040: 6526 9b3c c397 00be f276 603d 16ea d63e
00000050: 5005 4f3d cdcc cc3d a78c bd3d b3e5 8f3e
00000060: 0efe 18be e71e ea3e fbaf 793d dd06 84bb
00000070: 26e6 d83d 3f90 29b9 4a09 853e ae4b 1e3e
00000080: 1e51 913e e058 0f3e 0ec0 1c3e 7ca8 553e
00000090: 87a3 803d a1ba d1bb a896 b3bc 9185 513e
000000a0: 018f 563e 83f1 143e e2bf 5ebd a6d5 9cbd
000000b0: 617b 163d 6073 8f3d 005a 4a3d 79eb f43d
000000c0: e755 2abe d377 b13d 373c 21be cdcc cc3d
000000d0: 5988 4bbc 9a5c 7d3e 8536 84bc 12fb a13e
000000e0: 4f28 633d 79f6 683e 3f2a ba3d ca77 fa3d
000000f0: d22c 823d 0b46 583c 00d3 babd e82b cb3d
-0.18434095 -0.049560938 0.0050602993 0.23138629 -0.15883958 0.023134632 0.049602453 0.17337877
0.34122288 -0.0111444965 0.10895655 -0.019271132 -0.0539091 0.1 0.0078681 0.27582008
0.018939206 -0.12557893 0.054800935 0.41975468 0.050542176 0.1 0.09255343 0.28104934
-0.14940664 0.45726702 0.060958844 -0.0040291385 0.10590772 -0.00016170832 0.2598365 0.15458557
0.283822 0.13998747 0.15307638 0.20865053 0.0628119 -0.0064004217 -0.021922424 0.20461108
0.20952989 0.14545254 -0.054382212 -0.07657938 0.036738757 0.07004428 0.049402237 0.11958975
-0.16634332 0.08665433 -0.15745626 0.1 -0.0124226445 0.24742356 -0.016139278 0.31636864
0.055458363 0.22750272 0.09090089 0.12229879 0.06356205 0.013200293 -0.09122276 0.09920484

weight f4 [64, 64]
00000000: c1bd c9bc 8c93 febd 55c6 973e 2293 5abf
00000010: fcf3 76be ad13 983d 61cd 49be 2800 ca3d
00000020: cf98 acbe 54f5 723e 3db5 0ebf b21f e1c0
00000030: 7611 a53e a332 683e 0c8a 8a3d cf7b b5bd
00000040: 68a6 40be a40f f2bd 7457 78bd 98d8 47be
00000050: c825 bebd 7679 9cbd 52af d4bd 6461 8dbf
00000060: f043 c33e 888c 30bd 4a8e 50be b134 d13d
00000070: c03f acbd eb64 7f40 d49c 87be 6b4a 793d
00000080: 5d63 98be e8c0 46c0 41b8 ccbf 27f2 aabd
00000090: 98af b9bf 6e16 23bf dff4 b8bc 6947 54bf
000000a0: e740 a1c0 abd1 f0bf f115 533e 5bb3 fa3c
000000b0: 141b 8d3c 0f4c a5bf b14d d1be fa29 d5b9
000000c0: c027 30bf 8e53 aa3b a6eb 293c 013f c23d
000000d0: da7a e0c0 3332 00bd 8784 a9be c272 62be
000000e0: 716f c2bf a007 b9be 2cac 70be 7b9f 69bf
000000f0: 9f78 3b3b 2e41 1fbe 4ac0 50bf 9049 b4bc
00000100: cbce f1be a434 093f 596c 583e 52ea b1be
00000110: 291b 44c0 20e5 44be 78e7 adbf 16dd 413f
00000120: 7f00 0b3f 8f6d 2ebd 7205 a03f d0c2 be3e
00000130: c67b 1fbf 0f0e a7bd 352c 933d 5739 80be
00000140: e905 48bd f7ac 22be 3d4f 9fbe 8d27 b1bd
00000150: 9c8d 79bd 3d6d 01be 9f55 2c3d 5781 073f
00000160: c2f8 543e f00d b0bd 7f50 24be a5e3 89bd
00000170: ee4e 8d3c 43ba 6d3f 446a ec3e 91bb 2c3e
00000180: ebbf 6cbe 815a 493f 334a debc 15c4 ea3c
00000190: 07f5 8d3f a189 0940 9850 b4bd ab28 e73d
000001a0: 52d2 4a3e 2bcf aebe c506 8d3f 6619 19bd
000001b0: 9bfa c83f 1bb5 8bbe 609e bcbd 4ff1 28be
000001c0: 1cba 7cbf 3600 b9bf b803 39c0 5798 a7bc
000001d0: 9295 d13e 0d8f 723e 8f15 acbe a09c 78bd
000001e0: a9b6 993e b304 f5be 24ac 73bd 7b2d 04be
000001f0: 3d20 603e 05e7 0240 fd1d 09bf bd78 a23d
00000200: 837e f8be b704 3d3f f971 49bc f4fb adbe
00000210: 7427 4fc0 6fcf b2bb bde6 8abf 4be0 533f
00000220: 1e1a 263f ae1d a73d 944f a63f 3f0d aa3e
00000230: 1f2e 24bf 1228 5dbd f6ce 2d3e f617 cabe
00000240: 2611 11be 3084 ca3d b688 27be f25c 2dbd
00000250: acd8 f3bc c646 933d 4e92 92bd a87c fb3e
00000260: b3a3 e43e 9f82 94bc d72f aebc bb11 713d
00000270: 2047 4b3e 1c41 733f 996d 4a3f f888 0c3c
00000280: f4e9 47be 2167 043f 07c7 16be b367 08be
00000290: 95be 733f 864e 0240 6062 c63d 2937 613e
000002a0: 3d2e 823e a9a0 9fbe 1631 9a3f 79ce c4bb
000002b0: 652f c73f 377e e6be 1c85 f0bd 9ff4 f2bd
000002c0: ccbe 7cbf ed29 aebf 601f 34c0 c0fc b2bc
000002d0: 1dc4 8b3e 7a28 463d 85e7 8cbe 541f 78be
000002e0: 77c4 f03e 4c12 03bf e4f0 f3bd a099 5dbe
000002f0: 0401 c63e ce45 0340 c75f 2cbf 3fec 153e
00000300: 3bae f2be b895 c23e f8f5 cc3d 785d 543b
00000310: 4b7c 57c0 527b 65be da0b a5bf 1766 3b3f
00000320: afba 023f 05ab 943e cf77 a53f c6f9 8a3e
00000330: 97a5 2abf 77c2 2dbe 2081 443e 9c6b 3ebe
00000340: 08b5 3cbe 6646 9ebd 996a d1bd 81e2 8fbe
00000350: 0887 4cbd 24af 7fbd b66a acbd 29db 053f
00000360: 1049 323e 88df 953d b871 c83d 9e54 283e
00000370: 14fa 4d3e 55a2 843f f0c7 423f f1af 03bc
00000380: 457d 2fbe 6386 3e3f b35b 88be 2134 7d3d
00000390: c282 983f 77f5 0e40 1910 45bd 6cf8 e23d
000003a0: ea64 ec3e fb3b e8be 9ec7 993f 067e a83d
000003b0: 603d dd3f a1fa 4cbd a6da 17be d150 9ebc
000003c0: e0a4 bdbf 0f11 aebf 2a86 55c0 70b6 32bc
000003d0: 6f5c a83e b0d5 8f3e d3c7 6bbd 00bb 783c
000003e0: c41f a33e fed4 05bf 5fb0 a0bd 955e b8be
000003f0: 6ede 903e 3168 0040 39ed 42bf f7a2 0c3e
-0.024626615 -0.12430486 0.29643503 -0.85380757 -0.2411651 0.07425628 -0.19707252 0.09863311
-0.33710334 0.23726398 -0.557453 -7.035119 0.32239884 0.22675566 0.067646116 -0.08861505
-0.18813479 -0.118193895 -0.060630277 -0.19516218 -0.0928455 -0.07640354 -0.10385002 -1.1045346
0.3813777 -0.04310277 -0.20366779 0.10215128 -0.08410597 3.9905345 -0.26486838 0.060861986
-0.29763308 -3.105524 -1.599373 -0.08346968 -1.4506712 -0.637061 -0.022577701 -0.82921463
-5.0391726 -1.8813986 0.20613839 0.030603101 0.017224826 -1.2913836 -0.40879586 -0.000406578
-0.68810654 0.005197949 0.010371124 0.09484673 -7.0149965 -0.031297874 -0.33108923 -0.22114089
-1.5190259 -0.3613863 -0.23503178 -0.9125897 0.0028605831 -0.15552208 -0.8154341 -0.022007734
-0.47228083 0.5359595 0.21135081 -0.34749085 -3.0641577 -0.19228029 -1.3586264 0.75727975
0.5429763 -0.042584952 1.2501662 0.37258005 -0.6229824 -0.08156978 0.07186166 -0.25043747
-0.04883376 -0.15886293 -0.31115142 -0.08650122 -0.060926065 -0.12639327 0.042073842 0.5293173
0.20798019 -0.08596408 -0.16046332 -0.06732873 0.01724955 0.9286234 0.46174824 0.16868426
-0.23120086 0.78653723 -0.02713499 0.028657952 1.1090401 2.1490252 -0.088044345 0.11287054
0.19806793 -0.34142432 1.1017691 -0.037377737 1.5701479 -0.2728661 -0.09209895 -0.16498302
-0.9872148 -1.4453189 -2.890852 -0.020458383 0.40934426 0.23687382 -0.33610198 -0.060696244
0.3002217 -0.47855148 -0.059490338 -0.12907974 0.21887298 2.0453503 -0.53561383 0.07933185
-0.4853402 0.7383532 -0.01229524 -0.33981287 -3.236783 -0.005456857 -1.0851666 0.8276412
0.648836 0.08159958 1.2993035 0.3321323 -0.64132875 -0.053993292 0.1697348 -0.39471406
-0.14166698 0.09888494 -0.16360745 -0.042324968 -0.029766403 0.07191233 -0.07156812 0.49118543
0.44656143 -0.018128691 -0.021263046 0.0588548 0.19851351 0.95021224 0.7907348 0.008577578
-0.1952284 0.5171986 -0.1472436 -0.13320808 0.9521268 2.0360427 0.09686732 0.21993698
0.25425902 -0.3117726 1.204623 -0.006006059 1.5561339 -0.4501817 -0.117441386 -0.11863064
-0.9872863 -1.3606545 -2.814415 -0.021849036 0.2729806 0.048378445 -0.27520385 -0.242307
0.4702489 -0.51199794 -0.119111806 -0.21640635 0.3867265 2.0511355 -0.67333645 0.14640902
-0.47398552 0.3800485 0.10007852 0.0032404345 -3.3669612 -0.22410324 -1.2894242 0.7320265
0.51066107 0.29036728 1.2927188 0.27143687 -0.6665892 -0.16968714 0.19189882 -0.18595737
-0.18428433 -0.07728271 -0.1022541 -0.28102496 -0.049933463 -0.062422886 -0.08418791 0.52287537
0.17410684 0.07318026 0.09787315 0.16438529 0.20114928 1.036204 0.7608633 -0.008037553
-0.1713763 0.7442381 -0.2663246 0.061817292 1.1914904 2.233732 -0.048111055 0.11082539
0.4617074 -0.4535826 1.2014043 0.08227162 1.7284355 -0.050043706 -0.14829502 -0.019325646
-1.4815941 -1.3598956 -3.3363137 -0.010907754 0.3288302 0.28092718 -0.057563614 0.015181303
0.31860173 -0.52278125 -0.0784614 -0.3600966 0.282947 2.0063593 -0.76143223 0.13734041

bias f4 [64]
00000000: 4837 39bd b2f5 cd3e 87d5 d33e 0a94 e63e
00000010: 2830 df3e eb04 ea3e 1ea0 91be dd96 05bd
00000020: 3534 01bc cfa6 b23e c91c ccbb 4ee4 15be
00000030: f0a5 3bbe 4edd c73e 0e81 fdbe 071c f43d
00000040: 472c 3f3c e73b 26bf 0e91 ef3e 9a8b 58be
00000050: f4bb dd3e 5edb 1dbf d0bb 3bbc 75c3 183d
00000060: f4ea 073d 652d 85bb 8893 1f3e 7bf3 743c
00000070: 5f8c 75bf c4d4 f3bd d28a df3e f0f8 c23b
00000080: 1bf8 fa3c 6b0f 6ebb 6dfe f23e 32ab 50bd
00000090: 57cb abbe 2fc1 2bbd 75fe 8abc 6f5a a0be
000000a0: de45 9fbe 0f3f cd3e c194 e53e 6f2e 8ebd
000000b0: 8035 35be 4a7b f33e a6e7 99bc c5dd 973d
000000c0: 6eaf f03e 2fc8 2ebb 0675 f33e c93f 42bc
000000d0: e8a8 4a3d 2ce8 ffbd aa1d 0dbe 2617 10bd
000000e0: 0c05 a5bd 278d ef3e 7673 1dbe f76c 333f
000000f0: 78ac e13e dd88 983e b061 3dbd 329d 0a3f
-0.045218736 0.40226513 0.41373846 0.4503482 0.43591428 0.45706877 -0.28442472 -0.032614578
-0.007885982 0.3489289 -0.0062290174 -0.14637873 -0.18325019 0.3903603 -0.49512523 0.11919408
0.011668271 -0.64935154 0.46790355 -0.21147004 0.4330746 -0.6166285 -0.011458352 0.037295777
0.033183053 -0.0040642493 0.15583622 0.014950628 -0.95917314 -0.11905816 0.436606 0.005950086
0.030635884 -0.0036325108 0.47459736 -0.050944515 -0.33553573 -0.04193228 -0.016967038 -0.31318995
-0.31107992 0.40087172 0.44840053 -0.0694245 -0.1769619 0.47555 -0.018787216 0.07415346
0.47008842 -0.0026669612 0.4755022 -0.011856028 0.049477488 -0.12495455 -0.13780847 -0.035178326
-0.08057603 0.46787378 -0.15376076 0.7008814 0.44076896 0.29791918 -0.04623574 0.5414611

weight f4 [1, 64]
00000000: ffc3 b0c0 6a07 a43e b030 ce3e 2c62 d83e
00000010: 57fe b23e 656f aa3e 4468 03c0 8633 113c
00000020: 24c8 ff3c cf6e b3c0 c8d7 313c 2851 c9bf
00000030: 474e b1c0 0260 5fc0 c00c 48c0 1f05 aebf
00000040: 8376 71bc cab1 61c0 4c5e d03e de4c a2bf
00000050: 3e0e 6840 d2c8 6fc0 bfc9 2ebb e98d db3c
00000060: 967a adc0 bb08 7fc0 fb5e 25c0 b8fd b93c
00000070: 2b3c 3cbf 77de 39c0 9244 cb3e 3dad 07bc
00000080: 3561 863c 7027 353c 1afe ec3e 79be 4f3b
00000090: 25d4 16c0 5517 17c0 31c4 50c0 5a46 efbf
000000a0: 4d5b 97bf 484e a23e 3e91 b03e a381 86c0
000000b0: 61b6 d1bf c625 e43e 271c bdbc 527d 543e
000000c0: 2289 d93e 3879 b43b 103d e23e 960f 2abd
000000d0: 1b3a 70bd 509b 4fc0 e999 87c0 6d0d 18c0
000000e0: 777d 9bbf 379e d03e b49e 02c1 9d8a bb3f
000000f0: 4bca b93e c5df 9fc0 e362 fabc 7303 983f
-5.5239253 0.32036906 0.4027152 0.422624 0.3495967 0.33288112 -2.0532389 0.008862382
0.031223364 -5.6072764 0.010854669 -1.5727892 -5.5408053 -3.4902349 -3.1257782 -1.3595313
-0.014737728 -3.5264764 0.40696943 -1.2679708 3.6258693 -3.746632 -0.0026670543 0.026801066
-5.421214 -3.9849079 -2.5839221 0.02270399 -0.7352931 -2.9042032 0.39700752 -0.008281049
0.016403774 0.011056766 0.46287614 0.0031699224 -2.3566983 -2.360799 -3.2619746 -1.8693345
-1.1824738 0.3170035 0.3448581 -4.203325 -1.6383783 0.4456007 -0.023084713 0.20750931
0.42487437 0.0055076145 0.44187212 -0.04151877 -0.058649164 -3.2438545 -4.237538 -2.3758194
-1.2147664 0.40745708 -8.163746 1.4651676 0.3628715 -4.9960656 -0.030564731 1.1876053
